tmp/checkpoints_model_1/checkpoint-0.pt (torch, 376519 bytes, 10 tensors)

conv_part.0.weight f4 [32, 1, 3, 3]
0	0x3d30a812	0.043129034
1	0x3be24cc4	0.006906124
2	0x3d7c5a60	0.061609626
3	0xbd53b894	-0.0516897
4	0xbe04ce17	-0.12969242
5	0x3c7a816e	0.0152896475
6	0xbcd89474	-0.026437975
7	0xbab099f3	-0.0013473615
8	0x3df16ac6	0.117879435
9	0x3da46750	0.08027518
10	0xbe1c0e05	-0.15239723
11	0x3da6b419	0.0813982
12	0x3c01207c	0.00788128
13	0xbdd10556	-0.10206096
14	0xbe56ffc0	-0.20995998
15	0x3df15ff4	0.1178588
16	0xbd275343	-0.04085089
17	0xbd92b184	-0.07162765
18	0x3e367e6e	0.17821667
19	0x3d385987	0.045007255
20	0x3d070648	0.032964975
21	0xbd55760b	-0.052114528
22	0xbd10f6f4	-0.035391763
23	0xbcf7582c	-0.03019341
24	0x3d46e9d7	0.04856285
25	0xbd5ce978	-0.05393359
26	0xbd0f4643	-0.034979116
27	0x3ceec303	0.029145723
28	0xbe4f1766	-0.2022377
29	0x3ca33096	0.019920629
30	0xbe37f63c	-0.17965025
31	0x3e237d69	0.15965809
32	0xbd52106b	-0.05128519
33	0xbc1271ca	-0.008938262
34	0xbe00a7a0	-0.12563944
35	0xbdec5d4f	-0.11541235
36	0xbdb324f7	-0.08747285
37	0x3ce33266	0.027733993
38	0x3d8e129e	0.06937145
39	0xbdd62d32	-0.10457839
40	0xbdd07fc0	-0.101806164
41	0xbdf60cfb	-0.120141946
42	0xbe3e8444	-0.18605143
43	0x3e1d4477	0.15358149
44	0xbddd3a3c	-0.10802123
45	0x3c658f3e	0.014011202
46	0xbc31b146	-0.010845488
47	0x3ce0987c	0.02741646
48	0xbde876a7	-0.11350756
49	0xbd276cef	-0.04087537
50	0x3dc3f252	0.09567703
51	0xbd68897f	-0.05677175
52	0x3d579d7e	0.05264043
53	0x3e3dee3e	0.18547913
54	0x3de64fcc	0.11245689
55	0x3d5afcfc	0.05346392
56	0x3be091ec	0.0068533327
57	0x3da355e2	0.07975365
58	0xbdbc21a2	-0.091861024
59	0x3e08e1b7	0.13367353
60	0x3c2699b6	0.0101684835
61	0x3ddd616e	0.10809599
62	0xbccd5fe8	-0.025070146
63	0x3aea4f63	0.0017876442
64	0xbd3783a4	-0.044803277
65	0x3c4b397b	0.012403841
66	0x3c70ba5f	0.014692872
67	0xbbff12df	-0.007784232
68	0x3de05e9f	0.109555475
69	0xbd5b72dc	-0.053576335
70	0xbcef102b	-0.029182514
71	0x3cb036af	0.02151045
72	0xbd917e1e	-0.07104133
73	0x3d45e96e	0.04831832
74	0x3deff8a8	0.11717349
75	0xbde610a4	-0.11233643
76	0x3cf25ee6	0.029586267
77	0x3d42f55e	0.04759728
78	0x3ccfba1a	0.025357295
79	0xbcd9ffd0	-0.026611239
80	0xbd534afe	-0.05158519
81	0xbdd77486	-0.10520272
82	0xbdd3c192	-0.10339655
83	0x3cb55b6f	0.022138325
84	0x3cc2bcd0	0.023771673
85	0xbe4505ef	-0.19240545
86	0x3e279c2a	0.16368166
87	0x3d2608db	0.04053579
88	0x3dc442f8	0.09583086
89	0xbc665ef7	-0.014060727
90	0x3e0e28b9	0.13882722
91	0x3ba8c04e	0.0051498776
92	0xbcfe25a2	-0.031023804
93	0xbd1836d2	-0.037161656
94	0xbddf5ac8	-0.10905987
95	0xbc8f58a4	-0.017498322
96	0xbe1ba056	-0.15197882
97	0xbe1b9307	-0.15192805
98	0xbd426bb0	-0.04746598
99	0xbd88b525	-0.066751756
100	0x3d323474	0.043507054
101	0xbd178690	-0.036993563
102	0xbe031c8f	-0.12803863
103	0xbc876e82	-0.016532186
104	0xbdd525ac	-0.10407576
105	0x3da65029	0.08120758
106	0xbcf3982f	-0.029735653
107	0xbd3d8197	-0.046266165
108	0xbd699a53	-0.05703194
109	0x3cd5fb6c	0.026120864
110	0xbd462ef4	-0.04838462
111	0xbc66dd47	-0.014090843
112	0xbc6d8df3	-0.014499175
113	0x3b788f38	0.0037927162
114	0x3e06088a	0.13089195
115	0xbde1e03e	-0.11029099
116	0xbd8d8f80	-0.06912136
117	0xbb77c7e6	-0.0037808358
118	0xbdbdcf40	-0.092680454
119	0x3d85ccae	0.0653318
120	0xbd7bef42	-0.06150747
121	0x3e08437e	0.13306996
122	0xbcd61be0	-0.026136339
123	0x3db0ade3	0.08626916
124	0x3dbf05fc	0.09327313
125	0x3d9cccf2	0.07656278
126	0xbd33e887	-0.043922927
127	0xbd3cf8be	-0.046135657
128	0x3d4ede1a	0.05050478
129	0x3da20ce1	0.07912613
130	0xbb41530a	-0.0029498958
131	0xbb49e44f	-0.0030806249
132	0xbcef0a2b	-0.029179653
133	0xbd6904ec	-0.05688946
134	0x3d6e1fda	0.058135845
135	0xbc9c60fb	-0.019089213
136	0x3d201ca3	0.03908981
137	0x3d4d0bc0	0.050060034
138	0x3ca9e490	0.02073887
139	0x3d10c6f0	0.03534597
140	0xbe0196fa	-0.12655249
141	0x3e0a7796	0.13522181
142	0x3b269c94	0.0025422918
143	0xbdb59e4a	-0.08868082
144	0x3d26b492	0.04069955
145	0xbd091b13	-0.033473086
146	0x3d63fb37	0.0556595
147	0x3c460e9e	0.012088446
148	0x3c517820	0.012784988
149	0x3d73adff	0.059492107
150	0xbe32eeb0	-0.17473865
151	0x3d81e3b0	0.06342256
152	0xbdd070f7	-0.10177796
153	0xbde69578	-0.11258978
154	0xbda84866	-0.08216934
155	0x3dc65584	0.096842796
156	0x3c1bff6e	0.009521348
157	0x3d851914	0.06498924
158	0x3ca6c9ae	0.02035984
159	0x3d9bebfb	0.07613369
160	0x3bbbab8f	0.0057272385
161	0xbd68dbee	-0.056850366
162	0xbd67b8af	-0.056572612
163	0x3e4cfe80	0.20018959
164	0xbd9c1ca0	-0.07622647
165	0xbd17faf4	-0.037104562
166	0xbcb62260	-0.022233188
167	0xbd8e3386	-0.06943421
168	0xbe3fa4e2	-0.18715242
169	0xbdc2ca12	-0.09511198
170	0xbdbba7b6	-0.09162848
171	0x3cfb8283	0.030701881
172	0xbca219b9	-0.019787656
173	0x3cea163e	0.028575059
174	0x3d147ac0	0.036249876
175	0xbd3b5c78	-0.045742482
176	0xbd767d43	-0.060178053
177	0xbd9ddc73	-0.07708063
178	0x3d2c46ff	0.042059895
179	0xbe0ba122	-0.13635686
180	0x3c311c37	0.01080995
181	0x3dbe0e3a	0.09280057
182	0xbc7e9d76	-0.015540471
183	0xbd2f9cae	-0.04287403
184	0x3d0213ca	0.031757154
185	0x3d73734f	0.05943614
186	0xbe140d02	-0.14458087
187	0x3d3138bc	0.043266997
188	0x3b8c356c	0.0042788293
189	0x3dc9bd8b	0.098506056
190	0x3dd774e2	0.105203405
191	0x3c9c5d0c	0.019087337
192	0x3dd76c5b	0.10518714
193	0xbd822ece	-0.063565835
194	0xbc1cd9c2	-0.009573402
195	0x3c77e832	0.015131043
196	0x3c47d32f	0.012196346
197	0xbd84129c	-0.06448862
198	0xbdbbb287	-0.09164911
199	0xbd782ade	-0.060587756
200	0x3d2f2290	0.04275757
201	0xbd8021bd	-0.06256435
202	0xbd1b2b68	-0.037883192
203	0x3dfdf1f6	0.12399666
204	0xbe05bb04	-0.13059622
205	0x3e29aa61	0.165689
206	0x3d4bc53b	0.04974864
207	0xbd143f45	-0.03619315
208	0xbd1dfaf7	-0.038569417
209	0x3bf2c036	0.0074081672
210	0x3d1114cc	0.035420224
211	0x3dfabc34	0.12242928
212	0x3b4e1a88	0.003144892
213	0xbe36e23e	-0.17859742
214	0x3e08b00a	0.13348404
215	0xba7bbc7c	-0.00096029765
216	0x3da5a820	0.08088708
217	0x3df46400	0.11933136
218	0xbdf279cf	-0.118396394
219	0x3c75b292	0.014996188
220	0x3dd8cd5f	0.105860464
221	0x3e06f6a2	0.1318002
222	0x3d028397	0.031863775
223	0xbd9d5d95	-0.07683865
224	0xbcf4780c	-0.029842399
225	0x3c9c9082	0.019111875
226	0x3cc25e78	0.023726687
227	0x3d85c5f4	0.06531897
228	0x3b8b4565	0.004250216
229	0xbd0c360e	-0.034231238
230	0x3dc4e607	0.09614187
231	0x3de0f6df	0.10984587
232	0xbe211821	-0.1573186
233	0x3ddc30de	0.10751508
234	0x3d7c04a2	0.061527856
235	0xbb9e123a	-0.00482395
236	0x3d68185f	0.056663867
237	0x3d20e976	0.039285146
238	0x3da93b1c	0.08263227
239	0xbe43080c	-0.19046038
240	0x3b3ffdaf	0.0029295494
241	0x3c1457ac	0.009054106
242	0xbcf527db	-0.029926231
243	0xbd95440a	-0.07288368
244	0x3c88bcaf	0.016691534
245	0x3d6a4d0e	0.05720239
246	0xbd5bac70	-0.053631246
247	0xbe007792	-0.12545612
248	0x3e204b26	0.15653667
249	0x3dbc683b	0.09199568
250	0xbcc705ec	-0.024294816
251	0x3caa43d6	0.0207843
252	0xbbe2f428	-0.0069260783
253	0xbe0facd0	-0.14030766
254	0x3d8c7cce	0.06859742
255	0x3d0d6691	0.034521643

conv_part.0.bias f4 [32]
0	0x00000000	0.0
1	0x00000000	0.0
2	0x00000000	0.0
3	0x00000000	0.0
4	0x00000000	0.0
5	0x00000000	0.0
6	0x00000000	0.0
7	0x00000000	0.0
8	0x00000000	0.0
9	0x00000000	0.0
10	0x00000000	0.0
11	0x00000000	0.0
12	0x00000000	0.0
13	0x00000000	0.0
14	0x00000000	0.0
15	0x00000000	0.0
16	0x00000000	0.0
17	0x00000000	0.0
18	0x00000000	0.0
19	0x00000000	0.0
20	0x00000000	0.0
21	0x00000000	0.0
22	0x00000000	0.0
23	0x00000000	0.0
24	0x00000000	0.0
25	0x00000000	0.0
26	0x00000000	0.0
27	0x00000000	0.0
28	0x00000000	0.0
29	0x00000000	0.0
30	0x00000000	0.0
31	0x00000000	0.0

conv_part.3.weight f4 [64, 32, 3, 3]
0	0xbd87b29a	-0.066258624
1	0xbcb3daee	-0.02195498
2	0xbdc85411	-0.097816594
3	0xbd53cfdd	-0.051711906
4	0x3df891fe	0.12137221
5	0x3d8f904c	0.07009944
6	0x3d9c90b6	0.07644789
7	0x3d0e12c6	0.034685872
8	0x3d269e02	0.04067803
9	0xbd0c1be7	-0.034206297
10	0xbd87c413	-0.06629195
11	0x3d716cba	0.05894158
12	0x3c1353af	0.00899212
13	0xbc6f3ca7	-0.014601863
14	0xbc59519f	-0.013264089
15	0xbbe8a9fa	-0.007100341
16	0xbde515b2	-0.11185779
17	0x3d01678e	0.031592898
18	0x3c8b4e97	0.017005248
19	0x3da566eb	0.08076271
20	0xbdb659f6	-0.089038774
21	0xbdaca2ef	-0.084295146
22	0x3dfa16ae	0.12211357
23	0x3c87d8b0	0.016582817
24	0x3c0189ae	0.007906361
25	0x3d968392	0.07349314
26	0x3bed2e37	0.0072381753
27	0xbccf9d4a	-0.025343556
28	0x3de02c96	0.10946004
29	0xbd668b74	-0.056285337
30	0xbd29a305	-0.041415233
31	0x3d03976b	0.032126825
32	0x3d135b7d	0.035975922
33	0xbdbfa667	-0.093579106
34	0x3e00f3e4	0.12593037
35	0x3e322a17	0.17398869
36	0x3dcc4059	0.09973211
37	0xbcaaa6ce	-0.020831492
38	0x3cbe6944	0.023243554
39	0xbd1123a3	-0.035434376
40	0x3c520ce0	0.012820452
41	0xbc821c83	-0.015882736
42	0xbcb48a3a	-0.022038568
43	0xbde25413	-0.11051192
44	0x3d1229e1	0.03568447
45	0x3d790b37	0.06080171
46	0x3d365ad5	0.044520218
47	0x3d3a106c	0.045425817
48	0xbc9b5d18	-0.018965289
49	0x3db1a989	0.086749144
50	0x3d6a8bac	0.057262108
51	0x3d4c4209	0.049867664
52	0xbd429f10	-0.047514975
53	0x3d0f4c84	0.03498508
54	0x3cb426f8	0.021991238
55	0xbd0a1d6c	-0.033719465
56	0x3cccd78f	0.02500513
57	0xbd1977b6	-0.03746768
58	0x3d9a2cd0	0.075280786
59	0x3d1e0006	0.03857424
60	0x3d9290aa	0.07156499
61	0xbdfaa447	-0.12238365
62	0xbc51ddc0	-0.012809217
63	0xbc626e43	-0.013820234
64	0x3e0cf10c	0.13763827
65	0x3dec518b	0.115389906
66	0xbd22e6dc	-0.039770946
67	0xbcdc64fb	-0.02690362
68	0x3d4fb11d	0.050706018
69	0xbdce902e	-0.10086094
70	0xbd3db880	-0.04631853
71	0x3ce3a699	0.0277894
72	0xbda3cbc0	-0.079978466
73	0xbd95ed6c	-0.07320675
74	0xbb94546c	-0.0045266654
75	0x3c00680a	0.007837305
76	0xbc2fd818	-0.010732673
77	0x3ddea15c	0.108706206
78	0x3d298148	0.041383058
79	0xba8c43b1	-0.0010701326
80	0xbbd7859e	-0.0065772077
81	0xbd4c1b0f	-0.049830493
82	0xbd1dc2e6	-0.038515948
83	0xbda100d7	-0.07861488
84	0xbd11fb62	-0.035640128
85	0x3e582901	0.21109392
86	0x3d579888	0.0526357
87	0xbd9360a7	-0.07196169
88	0x3cb5707f	0.022148369
89	0xbca80b94	-0.020513333
90	0xbce12b4e	-0.02748647
91	0xbc8b9478	-0.017038569
92	0xbd1d06f3	-0.038336705
93	0xbe2064bd	-0.15663429
94	0xbd85d293	-0.065343045
95	0xbc900c51	-0.017583998
96	0x3d41bec6	0.047301076
97	0xbdc94e4e	-0.098293886
98	0xbc6429f6	-0.01392602
99	0xbcf76396	-0.030198853
100	0x3dbce22e	0.09222828
101	0x3b71f173	0.0036917597
102	0xbb4bcbeb	-0.0031096886
103	0x3d15718e	0.036485247
104	0xbda0dc84	-0.0785456
105	0xbd96ed9a	-0.07369538
106	0xbd069849	-0.032860074
107	0x3d18801c	0.03723155
108	0xbbe71ce0	-0.0070530027
109	0xbd9a7af3	-0.07542982
110	0x3d081b64	0.033229247
111	0xbd4a8e3b	-0.049452048
112	0x3b7be08a	0.0038433396
113	0xbd644c13	-0.055736613
114	0xbc2abc81	-0.010420919
115	0xbcd86921	-0.026417317
116	0x3da23d2c	0.07921824
117	0xbd098366	-0.033572577
118	0xbd44e28b	-0.04806761
119	0x3c4b5626	0.012410676
120	0x3c8ec027	0.01742561
121	0xbc1e0508	-0.009644754
122	0xbd3f094b	-0.04663972
123	0xbc5922a5	-0.013252889
124	0xbe26f287	-0.16303454
125	0x3d64d775	0.05586954
126	0xbad41daa	-0.0016183157
127	0xbe2ee7ab	-0.17080562
128	0x3bdaec2d	0.0066809864
129	0xbde9e6ea	-0.114209965
130	0x3a88eb6e	0.001044614
131	0xbdc015d0	-0.093791604
132	0xbd1a028b	-0.03760008
133	0xbd439091	-0.04774529
134	0x3d6a2e49	0.057173047
135	0xbcf70252	-0.030152474
136	0xbd48f63d	-0.049062956
137	0xbb8bcc6b	-0.004266312
138	0xbd1e3d99	-0.038632963
139	0xbcb208c6	-0.0217327
140	0x3d2d1277	0.042253938
141	0xbb85e847	-0.0040865275
142	0xbd1f0f47	-0.03883293
143	0x3bd792fb	0.0065788007
144	0xbc82bed8	-0.015960142
145	0xbce67ef5	-0.02813671
146	0x3c6be9e6	0.014399027
147	0x3c450e7d	0.01202738
148	0xbd292de3	-0.041303527
149	0x3da56025	0.08074979
150	0x3d552dd8	0.052045673
151	0xbd005cfb	-0.031338673
152	0x3d53d5df	0.051717635
153	0x3bd796e9	0.006579269
154	0x3daeed83	0.085413955
155	0x3de71447	0.112831645
156	0xbd0937e9	-0.033500586
157	0xbd45c22a	-0.048280872
158	0xbdf23ff6	-0.11828606
159	0xbc9e4ddf	-0.019324241
160	0x3bbbbab3	0.0057290434
161	0xbde249bf	-0.11049222
162	0x3daa0fbd	0.08303783
163	0x3d2dd95b	0.042443614
164	0xbdabd338	-0.08389896
165	0x3d82c6ce	0.06385575
166	0xbcf26c7e	-0.029592749
167	0xbc4373b4	-0.011929441
168	0xba037d0b	-0.0005015886
169	0xbc26e261	-0.010185809
170	0xbdd4c7da	-0.10389681
171	0x3c2b1f19	0.010444426
172	0x3cfbd1c7	0.030739678
173	0xbce8b103	-0.028404718
174	0xbdd3063b	-0.10303923
175	0xbbd44c3c	-0.0064788144
176	0xbd01c5df	-0.031682845
177	0xbda68cd7	-0.08132332
178	0xbcecbb13	-0.028897798
179	0x3cc1ec7d	0.023672337
180	0xbb87dd0b	-0.0041462234
181	0xbd3a6a6d	-0.04551165
182	0x3c6841df	0.014175861
183	0xbd3863b3	-0.045016956
184	0x3c83493e	0.016026136
185	0x3d64ca17	0.05585679
186	0x3ded56f4	0.115888506
187	0xbd7a4fba	-0.06111119
188	0xbd1d31cf	-0.03837758
189	0xbd19e60d	-0.03757291
190	0x3bc8d143	0.0061284616
191	0x3c60a616	0.013711473
192	0x3d9f0057	0.07763737
193	0x3d27b0ad	0.040939976
194	0xbd74addc	-0.059736118
195	0xbd0bc057	-0.034118976
196	0xbd2956ee	-0.04134267
197	0x3d05d84e	0.032676987
198	0x3ddaac65	0.10677413
199	0xbd3077aa	-0.04308287
200	0xbd2a50ce	-0.041580968
201	0xbc85e82c	-0.01634606
202	0x3e3a89c7	0.1821662
203	0xbb9924e0	-0.0046735853
204	0x3d50e3ed	0.050998617
205	0x3d0ccc62	0.034374602
206	0x3cb118a5	0.021618197
207	0x3d665017	0.056228723
208	0x3cba6467	0.022752954
209	0xbc9d169c	-0.01917582
210	0x3d514112	0.051087447
211	0x3dd5dcf6	0.104425356
212	0xbd804723	-0.06263568
213	0xbd00948b	-0.03139166
214	0x3d3c416e	0.045960836
215	0xbc098bce	-0.008395148
216	0x3dec01d1	0.11523784
217	0xbd5c62c5	-0.05380513
218	0x3c10bd6c	0.008834224
219	0x3d2942e9	0.041323576
220	0x3cf386d6	0.02972738
221	0xbd5b7b4e	-0.05358439
222	0xbd549974	-0.051904157
223	0x3daf51bb	0.08560511
224	0x3c85cbf8	0.016332611
225	0xbd09e2f3	-0.0336637
226	0xbcbffaea	-0.023435075
227	0xbba45497	-0.0050149667
228	0x3d785493	0.06062753
229	0x3d50ffc5	0.05102517
230	0x3d775be3	0.060390364
231	0x3c8f0fc8	0.01746358
232	0x3d9b9b0c	0.07597932
233	0xbd1104eb	-0.03540508
234	0x3ce07a47	0.027402056
235	0x3d15ed28	0.036603123
236	0x3dfa2ce1	0.12215591
237	0x3e0b424c	0.13599509
238	0xbd0426ec	-0.03226368
239	0x3d3354a1	0.04378188
240	0x3a4e34b1	0.0007866128
241	0xbc31c2c7	-0.010849661
242	0xb99b8af2	-0.00029667426
243	0x3da0d055	0.07852236
244	0x3d532c3d	0.05155586
245	0xbcc7dd2b	-0.024397453
246	0xbddb8953	-0.10719552
247	0xb9e2c606	-0.00043253618
248	0xbc5a7daf	-0.013335629
249	0x3c5e60cf	0.013572886
250	0xbd273a1a	-0.040826894
251	0xbc95ce35	-0.018286804
252	0xbc46e42d	-0.012139362
253	0xbcaadf95	-0.020858565
254	0xbdda736c	-0.10666546
255	0x3d7be4db	0.06149755

conv_part.3.bias f4 [64]
0	0x00000000	0.0
1	0x00000000	0.0
2	0x00000000	0.0
3	0x00000000	0.0
4	0x00000000	0.0
5	0x00000000	0.0
6	0x00000000	0.0
7	0x00000000	0.0
8	0x00000000	0.0
9	0x00000000	0.0
10	0x00000000	0.0
11	0x00000000	0.0
12	0x00000000	0.0
13	0x00000000	0.0
14	0x00000000	0.0
15	0x00000000	0.0
16	0x00000000	0.0
17	0x00000000	0.0
18	0x00000000	0.0
19	0x00000000	0.0
20	0x00000000	0.0
21	0x00000000	0.0
22	0x00000000	0.0
23	0x00000000	0.0
24	0x00000000	0.0
25	0x00000000	0.0
26	0x00000000	0.0
27	0x00000000	0.0
28	0x00000000	0.0
29	0x00000000	0.0
30	0x00000000	0.0
31	0x00000000	0.0
32	0x00000000	0.0
33	0x00000000	0.0
34	0x00000000	0.0
35	0x00000000	0.0
36	0x00000000	0.0
37	0x00000000	0.0
38	0x00000000	0.0
39	0x00000000	0.0
40	0x00000000	0.0
41	0x00000000	0.0
42	0x00000000	0.0
43	0x00000000	0.0
44	0x00000000	0.0
45	0x00000000	0.0
46	0x00000000	0.0
47	0x00000000	0.0
48	0x00000000	0.0
49	0x00000000	0.0
50	0x00000000	0.0
51	0x00000000	0.0
52	0x00000000	0.0
53	0x00000000	0.0
54	0x00000000	0.0
55	0x00000000	0.0
56	0x00000000	0.0
57	0x00000000	0.0
58	0x00000000	0.0
59	0x00000000	0.0
60	0x00000000	0.0
61	0x00000000	0.0
62	0x00000000	0.0
63	0x00000000	0.0

conv_part.6.weight f4 [64, 64, 3, 3]
0	0x3d7b51d2	0.061357327
1	0x3d21a4f2	0.039463945
2	0x3d8b2cd8	0.06795663
3	0xbcf90be5	-0.03040118
4	0xbcd8ad84	-0.026449926
5	0x3cf17f8a	0.02947976
6	0x3b8ab2af	0.0042327265
7	0x3d0c5ee2	0.034270175
8	0xbd61ba33	-0.055109214
9	0x3d9cb28f	0.07651245
10	0xbd48dc7e	-0.049038403
11	0x3c265c5b	0.010153855
12	0xbd369d2e	-0.044583492
13	0x3cdc156a	0.02686568
14	0xbd0e5a01	-0.034753803
15	0x3d817778	0.06321615
16	0xbdc49587	-0.095988326
17	0xbd33cd31	-0.043896858
18	0x3d169d63	0.03677119
19	0x3d72ad1b	0.059247117
20	0x3d7dcd0b	0.061963122
21	0x3b0c63ad	0.0021421716
22	0xbe0a3074	-0.13495046
23	0x3d79e49d	0.06100904
24	0x3dcf11b8	0.101108015
25	0x3c8edd51	0.017439516
26	0x3d1312a5	0.035906453
27	0xbd8cc06c	-0.06872639
28	0xbd73dd3c	-0.059537157
29	0x3d23881f	0.039924737
30	0xbb333a14	-0.002734785
31	0x3aaf7025	0.0013384862
32	0x3ca1c0a0	0.019745171
33	0xba76542a	-0.00093966967
34	0xbc9e9f26	-0.019362997
35	0x3c35f8f4	0.011106718
36	0xbd1e5af1	-0.038660947
37	0x3d71d7c8	0.059043676
38	0xbce644d2	-0.028108988
39	0x3d5f8fe6	0.05458059
40	0x3d8677c4	0.06565812
41	0x3d06cd14	0.03291042
42	0x3cede38c	0.029039167
43	0xbd962423	-0.07331111
44	0xbaa70f7d	-0.0012745705
45	0xbd3d35fb	-0.046194058
46	0xbd1a8dab	-0.03773276
47	0xbcd94b14	-0.026525058
48	0x3c94e357	0.01817481
49	0xbcd58c62	-0.026067916
50	0xbcf982e8	-0.030457929
51	0x3d6d56da	0.057944156
52	0x3dc9b507	0.09848981
53	0x3d708fd6	0.058730923
54	0xbcc62dea	-0.024191815
55	0x3d3a5b1e	0.045497052
56	0xbd17454e	-0.03693133
57	0x3c952881	0.01820779
58	0xbd832df3	-0.064052485
59	0xbdabaa2a	-0.083820656
60	0x3cf33a90	0.02969101
61	0xbd52043b	-0.051273566
62	0x3d58f23b	0.052965384
63	0xbd06cc7d	-0.03290986
64	0x3d346a20	0.04404652
65	0x3e61d9ad	0.22055693
66	0xbbe7c238	-0.007072713
67	0xbd4034de	-0.046925418
68	0xbd1c9995	-0.038232405
69	0x3c97a657	0.018511934
70	0x3d61099e	0.054940812
71	0xbc8a96c0	-0.016917586
72	0x3d01ea44	0.031717554
73	0xbda0315d	-0.07821915
74	0xbd391390	-0.045184672
75	0x3b26f6dd	0.0025476732
76	0xbda657ba	-0.08122201
77	0x3ddfdc8a	0.10930736
78	0xbc934e66	-0.01798172
79	0x3c802ce7	0.015646411
80	0x3da67905	0.081285514
81	0x3bc02472	0.0058637196
82	0xba70b525	-0.0009182266
83	0x3d4b99a4	0.04970707
84	0x3db3b18b	0.08774098
85	0xbd474075	-0.048645455
86	0xbb2ce97b	-0.0026384282
87	0xbdec98de	-0.115525946
88	0xbd605669	-0.054769907
89	0x3c033897	0.008009098
90	0xbd3cda2a	-0.046106495
91	0x3ca7bb99	0.020475196
92	0x3da44675	0.08021251
93	0x3d390f74	0.045180753
94	0xbd614f55	-0.055007298
95	0x3db8cd67	0.090235524
96	0x3843499c	4.6560177e-05
97	0x3d315451	0.0432933
98	0xbc948fdc	-0.018135004
99	0x3de19fb0	0.11016786
100	0x3d0ff84d	0.035148907
101	0x3cbd3b9e	0.023099717
102	0xbccc6456	-0.024950188
103	0x3dae17fe	0.0850067
104	0xbc93fdbd	-0.018065328
105	0x3bf5f190	0.007505603
106	0x3d0aacd8	0.033856243
107	0xb99c74c9	-0.0002984165
108	0x3d57b22b	0.05266015
109	0xbd9b996e	-0.07597624
110	0x3b98fe58	0.004668992
111	0x3d11f449	0.03563336
112	0x3d3b4a1a	0.045724966
113	0x3cc46369	0.023973184
114	0xbd3a8c85	-0.045544166
115	0xbda0309b	-0.07821771
116	0xbcc13f1c	-0.023589663
117	0x3d314ab8	0.043284148
118	0x3b69a2dd	0.0035650053
119	0xbdd6daa5	-0.10490922
120	0xbd4807d6	-0.048835598
121	0xbd2e0a57	-0.04249033
122	0x3cdad535	0.026712993
123	0xbb626143	-0.0034542836
124	0x3c9b28cd	0.018940354
125	0x3d3f3d5e	0.046689384
126	0x3ce2e328	0.027696207
127	0xbd010e95	-0.031508047
128	0x3cd29c3f	0.02570927
129	0x3c3c98ee	0.011511071
130	0x3e0b5155	0.13605244
131	0x3ca1007c	0.019653551
132	0xbd93b393	-0.072119854
133	0x3e2d20a6	0.16906986
134	0x3b4363dd	0.0029814162
135	0x3da7d370	0.081946254
136	0x3d5f7275	0.054552514
137	0xbe4492e8	-0.19196665
138	0x38ec788e	0.00011275812
139	0xbe02a43a	-0.1275796
140	0xbd42865b	-0.047491413
141	0x3d4869a3	0.048928868
142	0x3d5836d9	0.05278668
143	0xbcee8767	-0.0291173
144	0xbda7a1e3	-0.08185174
145	0xbd4cd466	-0.050007246
146	0x3cb49b28	0.02204664
147	0x3dfc338e	0.12314521
148	0x3d7ab2d5	0.061205704
149	0x3dcf2cb6	0.1011595
150	0xbc5389e5	-0.012911295
151	0xbd017fa3	-0.031615864
152	0x3d863f8a	0.06555088
153	0xbceaaf92	-0.028648172
154	0xbc687559	-0.014188134
155	0xbd3b2b56	-0.045695625
156	0x3bf7a3e9	0.0075573814
157	0xbd463a85	-0.048395652
158	0x3c4c369c	0.012464192
159	0x3d352ab7	0.04423019
160	0xbc2c0c05	-0.010500913
161	0xbd0e3536	-0.034718715
162	0x3d543fa2	0.051818497
163	0xbd67f3d7	-0.05662903
164	0xbdcc4381	-0.09973813
165	0x3dad3ca7	0.08458834
166	0x3ca5f120	0.020256579
167	0xbd9edc11	-0.07756818
168	0xbd0e25ee	-0.03470414
169	0xbc74cc61	-0.014941306
170	0x3d0f9332	0.035052486
171	0x3b4b00b3	0.0030975759
172	0x3dc57a71	0.096424945
173	0x3abbaa42	0.0014317709
174	0xbdd35cbd	-0.10320423
175	0x3c0246c5	0.007951443
176	0x3c8945c4	0.0167569
177	0x3c965e03	0.018355375
178	0xbbf6e240	-0.0075342953
179	0x3bec3272	0.007208162
180	0x3d9dc488	0.07703501
181	0x3cb96946	0.022633206
182	0xbb6999c1	-0.0035644623
183	0x3d5eefd3	0.054427933
184	0xbcf6d668	-0.030131534
185	0x3c25aa47	0.010111398
186	0xbd5e9740	-0.054343462
187	0xbd1d1d40	-0.038357973
188	0x3d871f2b	0.06597742
189	0xbc84e210	-0.016221076
190	0xbe2abfa2	-0.16674665
191	0x3d6c8e1f	0.057752725
192	0xbde94c7b	-0.113915406
193	0xbd71f47c	-0.05907105
194	0xbaf0a1d5	-0.0018358777
195	0x3d578118	0.052613348
196	0x3d442180	0.04788351
197	0xbd96afe5	-0.07357768
198	0x3c99b74c	0.01876416
199	0x3d697d0f	0.05700403
200	0x3bb93782	0.005652369
201	0xbcf1d967	-0.02952261
202	0x3d5840ec	0.05279629
203	0xbcfe9a5b	-0.031079462
204	0xbd8fc8b2	-0.070207015
205	0x3cc6acee	0.024252381
206	0x3d7d6ea0	0.06187308
207	0x3d9c7cc7	0.07640987
208	0xbd557681	-0.052114967
209	0xbd8213bf	-0.063514225
210	0x3c8fb5fc	0.017542832
211	0x3c062247	0.008186883
212	0x3c5dd3ca	0.013539264
213	0x3cc3c171	0.023895951
214	0xbcedefa1	-0.029044928
215	0xbdd486ab	-0.103772484
216	0x3b94fe50	0.004546918
217	0x3cbc2420	0.022966444
218	0x3d1a2a81	0.03763819
219	0x3d279b7b	0.040919762
220	0x3c88bf5e	0.016692813
221	0xbd21c245	-0.03949191
222	0xbd96f6d0	-0.073712945
223	0xbb8c039c	-0.004272891
224	0xbd41ad93	-0.047284674
225	0x3d57948b	0.052631896
226	0x3c46e7d3	0.012140232
227	0xbc2caaae	-0.01053874
228	0x3c4ddc85	0.012564783
229	0xbcc16b89	-0.023610847
230	0x3d75c942	0.060006388
231	0xbd26e408	-0.04074481
232	0xbb4bb7e2	-0.0031084944
233	0x3bec287e	0.0072069755
234	0x3d26a61b	0.040685754
235	0x3de15f75	0.11004535
236	0xbc1803aa	-0.009278217
237	0xbd287d94	-0.041135386
238	0xbbf163a3	-0.007366614
239	0x3cd0a545	0.025469432
240	0x3c719554	0.014745075
241	0x3d3d9067	0.04628029
242	0xbd8830f8	-0.06649965
243	0xbd0660b4	-0.032807067
244	0x3c0db7d9	0.00864979
245	0xbd9805da	-0.07422991
246	0x3d5927d9	0.053016517
247	0x3dc1b2d6	0.094579384
248	0x3d39ad1a	0.0453311
249	0x3a3d3a2b	0.00072184455
250	0xbd0cb921	-0.03435624
251	0xbd252a98	-0.040323824
252	0x3c85d09c	0.016334824
253	0xbc21a294	-0.009865422
254	0x3e09978d	0.13436718
255	0xbda17437	-0.07883494

conv_part.6.bias f4 [64]
0	0x00000000	0.0
1	0x00000000	0.0
2	0x00000000	0.0
3	0x00000000	0.0
4	0x00000000	0.0
5	0x00000000	0.0
6	0x00000000	0.0
7	0x00000000	0.0
8	0x00000000	0.0
9	0x00000000	0.0
10	0x00000000	0.0
11	0x00000000	0.0
12	0x00000000	0.0
13	0x00000000	0.0
14	0x00000000	0.0
15	0x00000000	0.0
16	0x00000000	0.0
17	0x00000000	0.0
18	0x00000000	0.0
19	0x00000000	0.0
20	0x00000000	0.0
21	0x00000000	0.0
22	0x00000000	0.0
23	0x00000000	0.0
24	0x00000000	0.0
25	0x00000000	0.0
26	0x00000000	0.0
27	0x00000000	0.0
28	0x00000000	0.0
29	0x00000000	0.0
30	0x00000000	0.0
31	0x00000000	0.0
32	0x00000000	0.0
33	0x00000000	0.0
34	0x00000000	0.0
35	0x00000000	0.0
36	0x00000000	0.0
37	0x00000000	0.0
38	0x00000000	0.0
39	0x00000000	0.0
40	0x00000000	0.0
41	0x00000000	0.0
42	0x00000000	0.0
43	0x00000000	0.0
44	0x00000000	0.0
45	0x00000000	0.0
46	0x00000000	0.0
47	0x00000000	0.0
48	0x00000000	0.0
49	0x00000000	0.0
50	0x00000000	0.0
51	0x00000000	0.0
52	0x00000000	0.0
53	0x00000000	0.0
54	0x00000000	0.0
55	0x00000000	0.0
56	0x00000000	0.0
57	0x00000000	0.0
58	0x00000000	0.0
59	0x00000000	0.0
60	0x00000000	0.0
61	0x00000000	0.0
62	0x00000000	0.0
63	0x00000000	0.0

fc_part.0.weight f4 [64, 576]
0	0xbce23148	-0.02761139
1	0x3cd21d28	0.025648668
2	0x3baf4d2b	0.0053497753
3	0xbb186456	-0.0023253164
4	0xbd279454	-0.04091294
5	0x3c9e18b3	0.019298887
6	0x3ce54308	0.027986065
7	0x3d1bab3e	0.038005106
8	0xbaaf60d6	-0.00133803
9	0xbd11fd78	-0.035642117
10	0x3bcab340	0.006185919
11	0xbd062fbc	-0.032760367
12	0xbd1ac97c	-0.037789807
13	0xbc6fe95b	-0.014643039
14	0xbbdd12a0	-0.006746605
15	0x3cf40ea3	0.029792136
16	0x3c987ed8	0.018615171
17	0xbbd50c80	-0.0065017343
18	0xbb084a16	-0.0020796112
19	0xbd0e4486	-0.034733318
20	0x3d10ff6a	0.03539983
21	0xbc9fc39b	-0.019502452
22	0x3d26c326	0.04071345
23	0x3d13e6e0	0.03610885
24	0xbc149c86	-0.009070521
25	0xbcb231f3	-0.021752333
26	0x3d09cece	0.03364449
27	0x3b61d56b	0.0034459482
28	0xbcd9315b	-0.026512792
29	0x3c5e0b4b	0.013552497
30	0xbcbd7dfe	-0.023131367
31	0x3bb9cbb6	0.005670036
32	0x3cfd99e0	0.030957162
33	0xbc85c563	-0.016329473
34	0xbd243b9a	-0.040095903
35	0xbcb77ee6	-0.022399377
36	0xbc9c8658	-0.019107029
37	0x3ce608f3	0.02808044
38	0xbd00da9a	-0.031458475
39	0x3c891a78	0.016736254
40	0xba8bc900	-0.0010664761
41	0x3d0cab4e	0.034343056
42	0x3cacd4e6	0.021097612
43	0xbd12d2ab	-0.03584544
44	0xbb0fcb16	-0.0021941117
45	0xbd1c084f	-0.03809386
46	0x3b69ca2b	0.003567348
47	0x3cf8c20e	0.03036597
48	0x3cd19960	0.02558583
49	0x3cab3bdb	0.020902565
50	0x3c43bfd0	0.011947587
51	0x3aa15300	0.0012308061
52	0x3bb56600	0.005535841
53	0xbccfbe80	-0.025359392
54	0x3a8c4680	0.0010702163
55	0x3d2a8372	0.041629262
56	0x3cf82f00	0.030295849
57	0xbd09d1ef	-0.033647474
58	0x3d1c8b4b	0.038218778
59	0x39c3b756	0.00037329894
60	0x3aecad00	0.0018056929
61	0xbc1920fb	-0.009346242
62	0x3d048fa3	0.032363545
63	0x3c9b9678	0.018992648
64	0xbb9b4696	-0.004738639
65	0x3cd23703	0.025660997
66	0x3d286f82	0.041121967
67	0x3cc7fca6	0.024412464
68	0x3d1e2ce7	0.03861704
69	0xbbb9ea56	-0.005673687
70	0xbc9a1c3e	-0.018812295
71	0x3c17a95b	0.009256686
72	0xbd22b4e4	-0.039723292
73	0xbcdd24fe	-0.026995178
74	0xbcbf4893	-0.023350036
75	0xbcfaddbb	-0.030623307
76	0xbc9e74a8	-0.019342735
77	0xbc036fa0	-0.008022219
78	0x3cbc213e	0.02296507
79	0xbc002dc0	-0.007823408
80	0xbaffe356	-0.0019522707
81	0x3c953308	0.01821281
82	0x3c7434e0	0.0149051845
83	0xbc35c820	-0.011095077
84	0xbd0f7ca0	-0.03503096
85	0xbc8da1eb	-0.017289123
86	0x3cbcba1b	0.02303796
87	0x3c11fed0	0.00891085
88	0xbbf434ab	-0.0074525676
89	0xbc03dd80	-0.008048415
90	0x3c55caf6	0.013048878
91	0xbcd8e790	-0.026477605
92	0xbc96cedb	-0.018409183
93	0xbc96db80	-0.018415213
94	0xbac1c32b	-0.0014782896
95	0x3d0c5672	0.03426213
96	0xbcb717d8	-0.022350237
97	0x3d11f2e4	0.03563203
98	0x3acf12ab	0.001579841
99	0xbd0697e6	-0.032859705
100	0x3d120108	0.035645515
101	0xbd09652b	-0.033543747
102	0x3cc55db8	0.02409254
103	0x3d15e45f	0.036594745
104	0x3d11abff	0.03556442
105	0xbbd598eb	-0.0065184734
106	0x3bd316a0	0.006441906
107	0x3d15fe12	0.036619253
108	0xbd1ed6a6	-0.038778923
109	0x3d0632b3	0.032763194
110	0xbce16fee	-0.027519193
111	0xbcdb2f53	-0.026755964
112	0x3c975226	0.018471789
113	0x3cb9e038	0.022689924
114	0x3d0923fe	0.03348159
115	0xbc8d35eb	-0.017237624
116	0x3cf03d28	0.029326037
117	0xbcd37428	-0.025812224
118	0xbcddc84e	-0.027073052
119	0x3c4ca630	0.012490794
120	0xbcc7f2e3	-0.02440781
121	0x3ce1cd5b	0.027563741
122	0xbb90bfd6	-0.0044174
123	0xbc2a2750	-0.010385349
124	0x3cd64ea8	0.026160553
125	0x3d058cd3	0.032605004
126	0xbcb3ae96	-0.021933835
127	0xbce6a186	-0.028153192
128	0x3c8657a3	0.01639921
129	0x3d253546	0.04033401
130	0xbb8b1deb	-0.00424551
131	0x3b36c8d6	0.0027890704
132	0xbd22438b	-0.039615195
133	0xbd11237e	-0.03543424
134	0xbc26aac0	-0.010172546
135	0xbc92f816	-0.017940562
136	0xbcd07d46	-0.02545036
137	0x3d215414	0.039386824
138	0xbcf951e6	-0.03043456
139	0x3c4fda50	0.012686327
140	0xbcc9ee9b	-0.024649909
141	0x3ca7143e	0.020395394
142	0x3cca75f8	0.024714455
143	0x3d14e2f2	0.036349244
144	0x3c8b9a28	0.01704128
145	0xbc55c926	-0.013048446
146	0xbcbbd75e	-0.022929844
147	0x3cbfbcf0	0.023405522
148	0x3bcd6d2b	0.0062691174
149	0xbb67276b	-0.0035271298
150	0xbd092304	-0.03348066
151	0x3c550b46	0.013003176
152	0xbbb216f6	-0.005434866
153	0x3c89ea56	0.016835373
154	0x3bdb8c76	0.006700094
155	0x3bebda20	0.0071976334
156	0xbcb73c26	-0.022367548
157	0xbc8efe06	-0.017455112
158	0x3d04e86f	0.03244823
159	0xbbcfcd20	-0.0063415915
160	0xbcaf92b6	-0.021432262
161	0xbcf2501b	-0.029579213
162	0xbc33fa8b	-0.010985027
163	0x3d15b71b	0.036551576
164	0x3c610110	0.0137331635
165	0x3bd2f80b	0.0064382604
166	0xbd1fc966	-0.039010428
167	0x3c59626b	0.013268094
168	0x3cde41d3	0.027130997
169	0xbc16dd30	-0.009208009
170	0x3cfcee46	0.030875336
171	0xbd1bdc2e	-0.038051777
172	0x3c08d856	0.00835236
173	0xbc8f70a0	-0.017509758
174	0x3d243682	0.040091045
175	0x3989e2ab	0.00026299557
176	0xbc6723a6	-0.01410762
177	0x3d009b24	0.031397954
178	0xbad98980	-0.0016596764
179	0x3c8fa77e	0.017535921
180	0x3c5d5f5b	0.013511504
181	0xbd1eb26c	-0.038744375
182	0xbc804ba6	-0.015661072
183	0xbd20f662	-0.03929747
184	0x3d0646e8	0.032782465
185	0xbccfe9d0	-0.025380045
186	0x3be7c1e0	0.0070726722
187	0xbd0c919a	-0.034318544
188	0xbc5b1870	-0.013372526
189	0x3ca607a8	0.020267323
190	0x3c5fc976	0.013658872
191	0x3c5abc30	0.013350531
192	0xbbf7aaa0	-0.007558182
193	0xbb023c16	-0.001987224
194	0x3ca095f8	0.01960276
195	0x3d0d8f6f	0.034560617
196	0xbc1a0d8b	-0.009402643
197	0x3c64b6a0	0.013959557
198	0x3c85b5b0	0.016321987
199	0x3d1750ac	0.03694217
200	0x3caceec3	0.021109944
201	0x3cbaf84e	0.022823479
202	0x396536ab	0.00021859507
203	0x3d0a3dab	0.033750217
204	0x3cab119e	0.020882424
205	0x3bc34cf6	0.005960102
206	0xbbe4fde0	-0.006988272
207	0xbc84d9d8	-0.016217157
208	0xbca6cc36	-0.020361047
209	0x3d17317b	0.036912423
210	0xbcb92193	-0.022599017
211	0x3d2045a2	0.039128907
212	0x39f232ab	0.00046195587
213	0xba19b6ab	-0.00058637065
214	0x3cc3941b	0.023874333
215	0xbbda29eb	-0.006657829
216	0xbd1ae114	-0.037812307
217	0xb9fe2eab	-0.00048481426
218	0xbbd6b940	-0.0065528452
219	0x3cdd6c36	0.027029138
220	0xbcb126ee	-0.021625008
221	0xbce55f98	-0.027999684
222	0x3cec4f43	0.028846389
223	0xbb74a9eb	-0.0037332724
224	0x3bd5f4c0	0.0065294206
225	0xbc4683ab	-0.012116353
226	0xbb1d812b	-0.002403329
227	0x3d21bf1f	0.039488908
228	0xbc459f36	-0.012061885
229	0xbcd5c59e	-0.026095208
230	0xbc10b1b0	-0.0088314265
231	0xbc901106	-0.017586242
232	0x3ccd916b	0.025093755
233	0x3d08a030	0.03335589
234	0xbb64b980	-0.0034900606
235	0xbd0bca06	-0.03412821
236	0xbb048900	-0.002022326
237	0xbbf21520	-0.007387772
238	0x3d15cdf6	0.036573373
239	0xbcd36756	-0.02580611
240	0xbc53ddb0	-0.012931272
241	0x3ccb0026	0.024780344
242	0xbd22e032	-0.03976459
243	0xbc830336	-0.015992742
244	0x3bdfba76	0.006827648
245	0xbc784a6b	-0.015154461
246	0x3ac25656	0.0014826756
247	0x3d001392	0.031268664
248	0xbd190d2f	-0.03736609
249	0xbce42628	-0.027850226
250	0x3d0af318	0.03392324
251	0xba52ea00	-0.0008045733
252	0x3d20fcfe	0.039303772
253	0x3c4eacab	0.012614409
254	0xbd04f89c	-0.032463655
255	0xbd1f3960	-0.038873076

fc_part.0.bias f4 [64]
0	0x3ce0b4ee	0.027430024
1	0x3c5b3920	0.013380319
2	0xbd04a6d6	-0.03238567
3	0x3ca44710	0.020053416
4	0x3c93e32e	0.018052664
5	0x3c74c9e6	0.014940714
6	0x3cfc4776	0.030795794
7	0x3d0daec4	0.034590498
8	0x3d0071ac	0.031358406
9	0xbcf5b8db	-0.029995373
10	0x3cc9ad8e	0.02461889
11	0xbc8ae9a8	-0.01695712
12	0x3cd5da96	0.026105206
13	0x3d03ec62	0.032207854
14	0xbc16fa2b	-0.009214918
15	0xbcfaed53	-0.030630743
16	0x3bc76c96	0.0060859425
17	0x3c7df93b	0.015501316
18	0x3d04064c	0.032232568
19	0x3c5f2d8b	0.013621698
20	0xbcceb583	-0.025233036
21	0x3cfe2e66	0.031027984
22	0xbbda3bd6	-0.006659965
23	0xbcb416f3	-0.0219836
24	0x3d08ba4f	0.033380803
25	0x3d0f526c	0.034990713
26	0x3c019436	0.007908871
27	0xbbe4dc80	-0.0069842935
28	0x3b161556	0.00229009
29	0x3c2d5ab6	0.010580709
30	0xbce84d86	-0.028357279
31	0x394c7800	0.0001949966
32	0xbcc8b916	-0.024502318
33	0xbd0f7dfa	-0.03503225
34	0xbcd820fb	-0.026382914
35	0xbc0afdf6	-0.008483401
36	0xbbd69620	-0.006548658
37	0xbd2a5508	-0.041585
38	0x3a6ac0ab	0.00089551014
39	0x3c3afc2b	0.011412661
40	0xbcdf1078	-0.027229533
41	0xbb03fc56	-0.0020139418
42	0xbb13a880	-0.0022530854
43	0xbc67e456	-0.014153561
44	0xbc90dd1e	-0.017683562
45	0x3c6f306b	0.014598946
46	0x3cdb6138	0.026779756
47	0xbcf1eb6b	-0.029531201
48	0xbcba0990	-0.022709638
49	0xbcf9e130	-0.030502886
50	0x3c541f56	0.012946924
51	0xbcea680e	-0.02861407
52	0xbcdc436b	-0.026887616
53	0x3b6aeb56	0.0035845838
54	0xbafe83d6	-0.0019417952
55	0xbd049a93	-0.032373976
56	0xbb6a4096	-0.0035744063
57	0x3cf2aafe	0.029622551
58	0x3c9b09ee	0.018925633
59	0x3a6a0e56	0.0008928528
60	0xbce2b0be	-0.027672168
61	0x3cfbdebb	0.030745855
62	0x3c81b80e	0.015834834
63	0xbb00ebab	-0.001967172

fc_part.2.weight f4 [10, 64]
0	0x3d6d2f90	0.057906687
1	0x3c5d8a10	0.013521686
2	0x3d7aafac	0.06120269
3	0x3d712f38	0.058882922
4	0xbd8e2b0a	-0.06941803
5	0x3dcd0c32	0.10012092
6	0x3de71040	0.11282396
7	0x3dcdbf0a	0.100462034
8	0x3db1afdc	0.08676121
9	0x3da7367a	0.081646875
10	0xbce4bc40	-0.027921796
11	0xbdeb0a0a	-0.11476524
12	0x3dbec6dc	0.09315273
13	0xbd1d7e9c	-0.038450822
14	0xbd11e7bc	-0.03562139
15	0x3daeff52	0.08544792
16	0x3d9ccf8c	0.07656774
17	0xbdc8c5a8	-0.09803325
18	0xbdf84daa	-0.12124188
19	0xbdd2e6cc	-0.10297927
20	0xbd67a858	-0.05655703
21	0x3d08bbb4	0.033382133
22	0x3c970be8	0.018438295
23	0xb8139000	-3.518164e-05
24	0x3d9f76ae	0.07786308
25	0x3ddeeb1c	0.10884687
26	0xbd917a96	-0.071034595
27	0xbdf28910	-0.11842549
28	0x3da1b6ba	0.078961805
29	0xbd304aa4	-0.043039933
30	0x3c9e27c8	0.019306079
31	0x3d310140	0.043214083
32	0xbcb14390	-0.021638662
33	0x3c08d250	0.008350924
34	0xbc443f60	-0.011978
35	0x3dc1ad22	0.094568506
36	0x3da5cd80	0.08095837
37	0xbacc2d00	-0.0015577376
38	0xbcd27888	-0.02569224
39	0x3d563e88	0.05230573
40	0x3deead72	0.11654176
41	0x3dcf6d80	0.10128307
42	0x3d838c1e	0.064232096
43	0x3db5902e	0.08865391
44	0xbdaeb68c	-0.08530912
45	0x3dac092a	0.084001854
46	0xbd46ccdc	-0.048535213
47	0x3d8cdece	0.06878434
48	0xbb6db640	-0.003627196
49	0xbd339274	-0.04384084
50	0x3c5ef8b0	0.013609096
51	0x3cc693f0	0.024240464
52	0xbdfd15b4	-0.12357655
53	0x3d528ed4	0.051405743
54	0x3d869b06	0.06572537
55	0xbd542890	-0.051796496
56	0x3dd1da3a	0.102467015
57	0x3cfd3fb0	0.030914158
58	0xbc140f50	-0.009036854
59	0xbd9f31aa	-0.077731445
60	0xbd67aa0c	-0.056558654
61	0xbc89b250	-0.016808659
62	0xbd4fd66c	-0.050741598
63	0x3dc3c690	0.09559357
64	0xbdd0c1fa	-0.10193248
65	0xbde0fab0	-0.10985315
66	0x3db6a91e	0.08918975
67	0x3d232548	0.039830476
68	0x3dca976c	0.09892163
69	0x3980ea00	0.00024588406
70	0x3db1515e	0.08658098
71	0x3bd1c7a0	0.006401971
72	0x3d1272a4	0.03575386
73	0xbab4ae80	-0.0013784915
74	0x3d6fbee0	0.058531642
75	0x3d6fdfc0	0.058562994
76	0xbdc20b26	-0.09474783
77	0xbda789fe	-0.08180617
78	0x3da99eae	0.08282219
79	0x3de79452	0.11307587
80	0x3c9d77c0	0.01922214
81	0x3d4f7888	0.050652057
82	0x3da5e922	0.08101107
83	0xbc9ea248	-0.019364491
84	0x3ddf9a2a	0.10918076
85	0xbdef2c50	-0.11678374
86	0xbd981d28	-0.07427436
87	0xbdd18136	-0.10229723
88	0x3d3bca98	0.045847505
89	0xbcf68640	-0.030093312
90	0x3dba67e4	0.09101847
91	0xbc6c4a50	-0.014422014
92	0x3ddeed58	0.108851135
93	0x3d8f8084	0.07006934
94	0x3d565708	0.052329093
95	0xbd74f3f4	-0.059802964
96	0x3d17d994	0.037072733
97	0xbd6fa740	-0.05850911
98	0x3dfa8e88	0.12234217
99	0xbdd0ba9a	-0.101918414
100	0x3ba04640	0.004891187
101	0x3db77452	0.08957733
102	0x3bf5edc0	0.0075051486
103	0xbbd9b5a0	-0.006643966
104	0x3dbf62da	0.09345026
105	0x3deaebc6	0.114707515
106	0x3de779c2	0.1130252
107	0xbb8e1100	-0.0043355227
108	0x3d019324	0.031634465
109	0xbd798c0c	-0.060924575
110	0x3de67df6	0.11254494
111	0x3d77ef24	0.060530797
112	0x3d9534d2	0.07285465
113	0x3d0207a8	0.031745583
114	0x3ddff24e	0.10934888
115	0xbdb26bb4	-0.08711949
116	0x3cacf890	0.021114618
117	0xbd3673b0	-0.044543922
118	0xbd56c434	-0.052433208
119	0x3dd5b6b4	0.104352385
120	0xbb8b2400	-0.004246235
121	0x3cf0ad90	0.029379636
122	0x3d14b50c	0.036305472
123	0xbd97d206	-0.07413106
124	0x3dcac12c	0.09900126
125	0x3c8b91a0	0.017037213
126	0x3ddf081e	0.1089022
127	0xbddfacb8	-0.10921615
128	0xbdd892a2	-0.10574843
129	0xbdd71ad0	-0.10503161
130	0x3de4d7ca	0.11173971
131	0x3df162f4	0.11786452
132	0x3db65852	0.089035645
133	0xbd16e0dc	-0.036835536
134	0x3d51ea98	0.051249117
135	0xbcf226a8	-0.029559448
136	0xbd59e0b8	-0.053192824
137	0x3dcdc312	0.10046972
138	0x3d93d864	0.072190076
139	0x3d90e99c	0.070758075
140	0x3cb25860	0.021770656
141	0xbd070680	-0.032965183
142	0x3da828a8	0.082108796
143	0x3d2edd98	0.042691797
144	0xbde7ea72	-0.11324014
145	0xbd91d4a0	-0.07120633
146	0x3db6193e	0.08891533
147	0xbd2d2658	-0.042272896
148	0xbd33f0c8	-0.0439308
149	0x3d4dca10	0.05024153
150	0x3debdc66	0.11516647
151	0x3d5c7aec	0.053828165
152	0xbc4b41d0	-0.012405828
153	0x3d4f5f64	0.05062808
154	0x3d7ce37c	0.061740384
155	0xbd818060	-0.06323314
156	0x3db4c2a4	0.08826187
157	0xbd252e64	-0.040327445
158	0xbd4023b0	-0.046909034
159	0x3db89de0	0.09014487
160	0x3d89f878	0.06736845
161	0xbdb433f6	-0.08798973
162	0xbdf84a98	-0.12123603
163	0xbcd165e8	-0.025561288
164	0xbc98dff0	-0.01866147
165	0xbc0bf890	-0.008543149
166	0x3ddbf698	0.107403934
167	0xbdbee044	-0.09320119
168	0x3dd72b38	0.1050629
169	0xbdd492ec	-0.103795856
170	0xbd0805b0	-0.03320855
171	0x3d07c648	0.03314808
172	0xbdd4a496	-0.10382955
173	0xbda7fd92	-0.082026616
174	0xbdf92960	-0.12166095
175	0x3b1e3240	0.0024138838
176	0xbd491fb8	-0.049102515
177	0xbde0992a	-0.10966714
178	0x3a346c00	0.00068825483
179	0x3ca291a8	0.019844845
180	0x3d899882	0.06718542
181	0xbdf7233c	-0.12067267
182	0x3ba0b9e0	0.0049049705
183	0xbdc96c00	-0.098350525
184	0xbc6f17c0	-0.014593065
185	0x3db19424	0.08670834
186	0xbc238c50	-0.009982184
187	0xb865b000	-5.4761767e-05
188	0x3d9c841e	0.07642387
189	0xbbb0c260	-0.005394265
190	0x3d9adcfa	0.07561679
191	0x3db1f03a	0.08688398
192	0x3de1cf68	0.11025888
193	0x3b5c0ec0	0.0033578128
194	0xbd2d5c68	-0.042324454
195	0xbc97ff50	-0.01855436
196	0xbb7b1980	-0.003831476
197	0x3cf66e58	0.030081913
198	0xbd997cc2	-0.07494499
199	0xbdf1b560	-0.11802173
200	0x3da78e8a	0.08181484
201	0x3de6f3e6	0.11276989
202	0x3de211b0	0.1103853
203	0x3c224a00	0.009905338
204	0xbc86df68	-0.01646395
205	0xbdc8c54e	-0.09803258
206	0x3b75f5c0	0.0037530512
207	0x3db0b740	0.08628702
208	0xbdc49370	-0.09598434
209	0x3d9784c8	0.07398373
210	0x3db47c42	0.08812763
211	0x3d8befc8	0.06832844
212	0xbdd94136	-0.10608141
213	0x3d805f50	0.062681794
214	0xbdcf8b8a	-0.10134037
215	0xbd8e894c	-0.06959781
216	0x3d511d2c	0.05105321
217	0x3c9b9978	0.018994078
218	0x3c038ec0	0.00802964
219	0x3d1ae1a0	0.03781283
220	0xbdba8eb4	-0.0910925
221	0x3db7975c	0.089644164
222	0xbd529c10	-0.051418364
223	0xbcc8a308	-0.024491802
224	0xbdacdad8	-0.08440179
225	0x3df95f12	0.12176336
226	0xbc833db0	-0.016020626
227	0x3d1d5d0c	0.038418815
228	0x3dbfb82a	0.093612984
229	0xbd06de48	-0.032926828
230	0xbd92e59e	-0.07172702
231	0xbd171324	-0.03688349
232	0x3de1778a	0.110091284
233	0x3cfa0250	0.03051868
234	0x3bdd36a0	0.0067508966
235	0x3ddda5aa	0.108226135
236	0x3d036094	0.032074526
237	0xbd545168	-0.051835448
238	0x3cf44130	0.02981624
239	0xbd7ddd14	-0.061978415
240	0x3dd251e2	0.10269524
241	0xbdaf408e	-0.08557235
242	0xbc91f3f0	-0.017816514
243	0xbbb560e0	-0.00553523
244	0x3da740e0	0.08166671
245	0x3dccadd8	0.099940956
246	0x3de333d8	0.11093873
247	0x3dab347a	0.083596185
248	0x3cc4c348	0.024018899
249	0x3d174780	0.036933422
250	0x3d8807c8	0.06642109
251	0xbcf89ab8	-0.030347213
252	0x3c5f4580	0.01362741
253	0xbc0db790	-0.008649722
254	0xbda27b78	-0.07933706
255	0xbd83d6e8	-0.064374745

fc_part.2.bias f4 [10]
0	0xbd1e3a10	-0.03862959
1	0xbddb1b9a	-0.10698624
2	0xbd4198a8	-0.047264725
3	0xbd6e8d80	-0.058240414
4	0x3db2cd42	0.08730556
5	0xbd0547cc	-0.032539174
6	0xbd296004	-0.041351333
7	0x3de3039e	0.11084674
8	0xbd891410	-0.0669328
9	0xbdf9c160	-0.121950865
