tmp/checkpoints_model_1/checkpoint-4.pt (torch, 752361 bytes, 20 tensors)

conv_part.0.weight f4 [32, 1, 3, 3]
0	0x3e28eec2	0.16497329
1	0x3e0001ca	0.12500682
2	0x3d5a1b62	0.05324877
3	0xbe190a52	-0.14945343
4	0xbe654948	-0.22391236
5	0x3d63476a	0.055488028
6	0xbe29744f	-0.16548274
7	0xbd781ef7	-0.060576405
8	0x3e5ab514	0.21358138
9	0x3dab5be3	0.083671354
10	0xbe2e4d2d	-0.17021628
11	0xbd4027a7	-0.046912815
12	0x3e23ef14	0.1600917
13	0xbe3b068d	-0.18264218
14	0xbed41c22	-0.41427714
15	0x3e8fec61	0.2811003
16	0x3e932add	0.2874364
17	0x3d9abe8c	0.07555875
18	0x3ea97d97	0.3310363
19	0x3ebf460f	0.37358138
20	0x3e8325d3	0.25614795
21	0xbcd4e16f	-0.025986401
22	0xbd5fd21b	-0.05464373
23	0xbda31dbe	-0.07964657
24	0xbea37901	-0.31928256
25	0xbea6692d	-0.32502118
26	0xbe4532ae	-0.19257614
27	0x3e3096ff	0.172451
28	0xbdc5febf	-0.096677296
29	0x3d2001bd	0.039064158
30	0xbe1b40c9	-0.15161432
31	0x3c782234	0.015144873
32	0xbdfb2868	-0.12263566
33	0xbde5ffa0	-0.11230397
34	0xbe300b31	-0.17191769
35	0xbe2c4ffb	-0.16827385
36	0xbe1bd0a1	-0.15216304
37	0xbd3ea887	-0.04654744
38	0x3dd70ca3	0.10500457
39	0xbe0567be	-0.13027856
40	0xbe397390	-0.1811049
41	0xbe25c244	-0.16187388
42	0xbdd46f69	-0.10372812
43	0xbd5462c5	-0.051852006
44	0xbe2a58a0	-0.1663537
45	0xbce6a2f7	-0.02815388
46	0xbdc79c7f	-0.09746646
47	0x3d4fc2b5	0.050722796
48	0xbe8db8e4	-0.27680123
49	0xbe49226d	-0.19642039
50	0x3e2c48cb	0.16824643
51	0xbdc61ca5	-0.09673432
52	0x3dffc631	0.12488974
53	0x3eae396b	0.3402818
54	0x3e68cc7c	0.22734255
55	0x3e2d8552	0.16945389
56	0xbce03410	-0.027368575
57	0x3e13eb75	0.14445288
58	0x3de876d5	0.113507904
59	0x3e4b2d76	0.1984156
60	0xbd2d7a6a	-0.04235307
61	0x3e34b2b6	0.17646298
62	0x3e39c2dd	0.1814074
63	0x3db5db58	0.08879727
64	0x3e024b53	0.12724046
65	0x3de6f00c	0.11276254
66	0xbd8ab69f	-0.067731135
67	0xbc182d3b	-0.0092881275
68	0x3e44a1fd	0.19202419
69	0xbe35c221	-0.17749836
70	0xbe1e8c33	-0.1548317
71	0x3e3625ff	0.17787932
72	0xbe76d456	-0.24104437
73	0xbd1b8d73	-0.037976693
74	0x3e93f086	0.28894442
75	0xbe563ace	-0.2092087
76	0xbb3c7832	-0.0028758165
77	0x3e4c3ad4	0.19944316
78	0xbd72475a	-0.059150077
79	0xbc30fc80	-0.010802388
80	0x3d46e261	0.048555735
81	0xbe321437	-0.17390524
82	0xbed77bae	-0.42086548
83	0xbea6de2c	-0.3259138
84	0xbdd3d672	-0.103436366
85	0xbe88ba2e	-0.26704544
86	0x3e3b435b	0.18287413
87	0x3ec3fe40	0.38279915
88	0x3f0a2285	0.5395892
89	0x3e34a7c8	0.17642128
90	0x3eb390d4	0.35071433
91	0x3e49b24b	0.1969692
92	0x3d30235d	0.043002475
93	0x3d2b8180	0.041871548
94	0xbd5d03e1	-0.053958777
95	0xbe3d7932	-0.18503264
96	0xbe7110ad	-0.23541518
97	0xbe68d7fd	-0.22738643
98	0xbe5befa1	-0.2147813
99	0xbdd7e37b	-0.10541435
100	0x3d51acbf	0.051190134
101	0x3d7dc859	0.061958645
102	0xbe3c2a4d	-0.18375511
103	0xbdf67042	-0.1203313
104	0xbe2f8e51	-0.17144133
105	0x3e5645af	0.2092502
106	0x3cb449bb	0.022007814
107	0xbd0d905d	-0.034561504
108	0xbdf86b57	-0.121298485
109	0xbda79a5e	-0.0818374
110	0xbd863807	-0.06553655
111	0xbd8033a7	-0.06259852
112	0xbdf52ad0	-0.119710565
113	0xbdb2ac97	-0.08724325
114	0x3da6ebda	0.08150454
115	0xbd9e54f5	-0.07731048
116	0xbbbee106	-0.0058251647
117	0xbdc510e1	-0.0962236
118	0xbd7d2bf3	-0.06180949
119	0x3dfbc0d8	0.122926414
120	0xbe3195bf	-0.1734228
121	0x3e3a3293	0.18183355
122	0x3d831ea3	0.06402328
123	0x3d831b1c	0.06401655
124	0x3e21e3f6	0.15809616
125	0xbdb9290c	-0.09041032
126	0xbde7d1ab	-0.11319288
127	0xbd2ea0fb	-0.04263399
128	0x3dabe72c	0.08393702
129	0xbd906ec0	-0.07052374
130	0xbd96f251	-0.07370437
131	0x3d407597	0.046987142
132	0xbd33bdd5	-0.04388221
133	0xbdb72b8b	-0.08943852
134	0xbc6efb93	-0.014586347
135	0xbbcd0aaf	-0.006257377
136	0x3e430cbd	0.19047828
137	0x3c51cda7	0.012805379
138	0x3e41e047	0.18933211
139	0x3e097a80	0.13425636
140	0xbeae780f	-0.34075972
141	0x3eb7917c	0.35853183
142	0x3b127cec	0.0022352291
143	0xbea2ec57	-0.31820938
144	0x3e31ff0c	0.17382449
145	0x3e5f94ba	0.21834078
146	0x3e7af27a	0.2450656
147	0x3c9e35ac	0.019312702
148	0x3d4bbee0	0.04974258
149	0x3e579af8	0.2105521
150	0xbecf809a	-0.40527803
151	0xbe7a21c2	-0.2442694
152	0xbe6fc5ff	-0.23415373
153	0xbe81c22d	-0.25343457
154	0xbdd87da0	-0.10570836
155	0x3e476f0d	0.19475956
156	0xbd3b20b9	-0.045685504
157	0x3ebcf8a5	0.3690845
158	0x3db68cc8	0.08913571
159	0x3e2931d6	0.16522917
160	0xbb7df717	-0.0038752013
161	0xbe944c79	-0.28964594
162	0x3db58055	0.08862368
163	0x3e844fa0	0.25842
164	0x3e264785	0.1623822
165	0xbdfc0b39	-0.12306828
166	0xbd7cfce6	-0.06176462
167	0xbca5df1f	-0.020247994
168	0xbe700560	-0.2343955
169	0xbe84a334	-0.25905764
170	0xbe69f153	-0.22845964
171	0x3e469155	0.19391377
172	0x3e395e0c	0.18102282
173	0x3e2c7fc6	0.16845617
174	0x3d821816	0.0635225
175	0xbd868d13	-0.065698765
176	0xbdc544d9	-0.09632272
177	0xbe0864c6	-0.13319692
178	0xbdf25b2f	-0.11833798
179	0xbe606004	-0.21911627
180	0x3db411ef	0.08792483
181	0x3e90b597	0.28263542
182	0x3daf5883	0.08561804
183	0xbe263554	-0.1623128
184	0x3d9f9a3e	0.07793091
185	0x3e75b3dc	0.23994392
186	0xbe96f199	-0.294812
187	0xbe435624	-0.19075829
188	0x3c3f91c6	0.01169247
189	0x3d034dab	0.03205649
190	0x3e2d8fd0	0.16949391
191	0x3c08edd7	0.008357487
192	0x3e4b13e7	0.19831811
193	0xbd0beb71	-0.03416008
194	0xbdf46bc6	-0.11934619
195	0x3e06808b	0.13134973
196	0xbd87efb0	-0.06637514
197	0xbe05997e	-0.13046834
198	0xbdd3bb99	-0.10338516
199	0xbd0a3d12	-0.033749647
200	0x3e0bad4a	0.13640323
201	0xbe8988c8	-0.26862168
202	0xbde44322	-0.11145617
203	0x3ea1d045	0.3160421
204	0xbe8d0723	-0.27544507
205	0x3e1dfac3	0.15427689
206	0x3e6b2f00	0.22967148
207	0xbdcd3307	-0.10019498
208	0xbdcdb812	-0.10044874
209	0x3d99ee20	0.07516122
210	0x3d0cda5e	0.03438794
211	0x3e83ba41	0.25728038
212	0x3d3d03fa	0.04614637
213	0xbd8cff53	-0.06884637
214	0x3e2d934e	0.16950724
215	0xbe66d178	-0.22540843
216	0x3d5ac027	0.053405907
217	0x3d3cf697	0.046133604
218	0xbe5bcc5a	-0.21464673
219	0x3d934880	0.07191563
220	0x3e809c50	0.25119257
221	0x3eb09609	0.34489468
222	0xbdc29839	-0.095016904
223	0xbe510c27	-0.20414792
224	0x39b0c7f0	0.000337183
225	0x3bff7624	0.007796066
226	0x3e08457a	0.13307753
227	0x3e678ea8	0.22613013
228	0xbe124892	-0.14285496
229	0xbdda3ae5	-0.106557645
230	0x3e7b581d	0.24545331
231	0xbdf2a91f	-0.118486635
232	0xbea0eccd	-0.31430665
233	0x3d853bb5	0.06505529
234	0x3e42bb9b	0.19016878
235	0x3e1f2056	0.15539679
236	0x3db45545	0.08805326
237	0x3e3c8000	0.18408203
238	0x3c631dcd	0.0138620855
239	0xbe836507	-0.25663015
240	0xbdba5a58	-0.09099263
241	0xbe4918a3	-0.19638304
242	0xbdd15413	-0.10221114
243	0xbdddec44	-0.1083608
244	0xbdb5c7b6	-0.088759825
245	0x3d690c6e	0.05689662
246	0xbd8e3286	-0.0694323
247	0xbde679f6	-0.11253731
248	0x3e46dbf3	0.19419841
249	0x3ce85fc5	0.028365979
250	0x3d418f5c	0.04725586
251	0x3db956b7	0.09049743
252	0xbdc98138	-0.098391
253	0xbdc78717	-0.09742563
254	0x3e497539	0.19673623
255	0xbdc4b87f	-0.09605502

conv_part.0.bias f4 [32]
0	0xbca016dd	-0.019542152
1	0xbd601648	-0.05470875
2	0xbb5d32db	-0.0033752236
3	0xbe27a0b0	-0.16369891
4	0xbe72acc3	-0.23698716
5	0xbd8cb755	-0.06870905
6	0x3bad8c73	0.005296284
7	0xbc8f82b9	-0.017518388
8	0xbcce87bb	-0.025211206
9	0xbcdb08bd	-0.026737565
10	0xbe43556b	-0.19075553
11	0xbd226173	-0.039643716
12	0xbdfaf5e3	-0.122539304
13	0xbc72d561	-0.014821381
14	0xbd8ee94d	-0.06978092
15	0x3beaad42	0.007161767
16	0xbd67664c	-0.056494042
17	0xbda5f340	-0.08103037
18	0xbe2f8f90	-0.17144608
19	0xbcbc5a7c	-0.022992365
20	0xbd630d9f	-0.055432912
21	0xbd2b900c	-0.04188542
22	0xbc847ffb	-0.016174307
23	0x3d019d61	0.03164423
24	0xbd1d5aa5	-0.038416523
25	0xbcdfb72b	-0.027309021
26	0xbd1f1f74	-0.038848355
27	0xbd83c827	-0.064346604
28	0xbdac9307	-0.08426481
29	0xbd420715	-0.047370035
30	0x3dd1f3dc	0.102515906
31	0xbea31a3f	-0.31855962

conv_part.3.weight f4 [64, 32, 3, 3]
0	0xbd770469	-0.06030694
1	0x3c9122b5	0.017716745
2	0xbd3cc26b	-0.04608385
3	0xbd21aead	-0.039473224
4	0x3dcb27b1	0.0991968
5	0x3d653b6e	0.05596488
6	0x3d40cd5e	0.047070853
7	0x3aa5e3e2	0.0012656415
8	0xbb19e286	-0.0023480966
9	0x3c8a15aa	0.016856033
10	0xbd35f24f	-0.044420537
11	0x3d2f5002	0.04280091
12	0x3d96660c	0.07343683
13	0xbcb52dfd	-0.022116655
14	0xbd0ccdd1	-0.03437597
15	0x3d1c6e2c	0.038191006
16	0xbd63f9ca	-0.05565814
17	0x3d20d989	0.039269958
18	0x3c13a996	0.0090126
19	0x3d9015b7	0.07035392
20	0xbdbe5d33	-0.0929512
21	0xbdba2237	-0.09088557
22	0x3dc838a2	0.09776427
23	0x3d8fc575	0.07020084
24	0x3ca25386	0.019815218
25	0x3d8d92c2	0.069127575
26	0xbbfd38f3	-0.007727736
27	0xbd7f70a4	-0.06236328
28	0x3d8f3717	0.069929294
29	0xbd8ae0cc	-0.06781158
30	0xbda1f62b	-0.07908281
31	0xbc431ff7	-0.0119094765
32	0x3d178d49	0.036999974
33	0xbdea65c0	-0.114451885
34	0x3dc1855e	0.09449266
35	0x3e1f2fc0	0.15545559
36	0x3ccc3ba5	0.024930784
37	0xbc88fa01	-0.016720774
38	0xbc19ae25	-0.009379898
39	0xbda10e95	-0.078641094
40	0xbd41ed02	-0.04734517
41	0xbca50a87	-0.020146621
42	0xbdab177a	-0.08354087
43	0xbdee41e8	-0.11633664
44	0x3d175268	0.036943823
45	0x3d2cf39f	0.042224523
46	0x3db4f713	0.08836188
47	0x3dde6edc	0.108609885
48	0xbd0e766a	-0.034780897
49	0x3db64ca7	0.08901339
50	0x3d1d81d6	0.0384539
51	0xbb817821	-0.003951088
52	0xbd9f02d5	-0.07764212
53	0xbcfa31e7	-0.030541373
54	0xbca3d7cd	-0.020000363
55	0xbdbee451	-0.09320892
56	0xbd6c6d65	-0.057721514
57	0xbca15fe9	-0.019699054
58	0xbc4db1ce	-0.012554599
59	0xbd58f592	-0.05296857
60	0x3dcfb33f	0.1014161
61	0xbde97ef4	-0.114011675
62	0xbd752e53	-0.05985863
63	0xbccd2b40	-0.025045037
64	0x3dc7b88b	0.09751996
65	0x3daefd7b	0.08544441
66	0xbd1f81bd	-0.038942087
67	0xbd60cc9b	-0.054882627
68	0x3bb010de	0.0053731045
69	0xbd8d14c7	-0.068887286
70	0xbd97cdcb	-0.07412299
71	0xbcce75ad	-0.025202597
72	0xbd915031	-0.070953734
73	0xbd2d4cf5	-0.04230972
74	0x3c7b4dd1	0.015338377
75	0xbba04252	-0.0048907185
76	0x3c24933c	0.010044869
77	0x3dc51d0f	0.09624683
78	0x3cc029b9	0.023457395
79	0xbd04c2c8	-0.03241232
80	0xbd52cae3	-0.05146302
81	0xbd2ff4d3	-0.042958092
82	0x3c17f0fb	0.009273763
83	0x3c8a7236	0.016900163
84	0x38a44393	7.832716e-05
85	0x3e6e9c7c	0.23301882
86	0x3bbb6817	0.0057191956
87	0x3c5ea5ae	0.013589306
88	0x3d870718	0.0659315
89	0x3c20f29f	0.00982347
90	0xbcae21d4	-0.021256365
91	0xbba60606	-0.005066636
92	0xbd738be3	-0.05945958
93	0xbe2caa84	-0.16861922
94	0xbd70653b	-0.05869029
95	0x3d3d8dfd	0.04627799
96	0xbb9fa391	-0.0048717936
97	0xbd7a52a6	-0.061113976
98	0x3bb772fe	0.005598425
99	0xbd073a34	-0.03301449
100	0x3d9fbb21	0.07799364
101	0x3b8c5887	0.004283014
102	0xbcc7a081	-0.024368526
103	0x3c53039f	0.012879281
104	0xbd845413	-0.064613484
105	0xbd948a56	-0.07252948
106	0xbce2f687	-0.027705444
107	0x3d3456ac	0.04402797
108	0xbcbb8759	-0.022891687
109	0xbd6eab9c	-0.05826913
110	0x3c900f01	0.01758528
111	0xbd90dc53	-0.070732735
112	0xbcb33e3e	-0.021880265
113	0xbd5d0702	-0.05396176
114	0xbd236a39	-0.039896224
115	0xbd0d51e3	-0.03450192
116	0x3d941f88	0.072325766
117	0xbc975da2	-0.018477265
118	0xbd0ba17e	-0.034089558
119	0x3d1044ad	0.035221744
120	0x3ca8dfe0	0.020614564
121	0x3d09fe3a	0.033689715
122	0xbc613767	-0.013746119
123	0xbc57ed0f	-0.013179078
124	0xbe06bfa7	-0.13159047
125	0x3cc83556	0.024439495
126	0xbc7e630e	-0.015526546
127	0xbe0287ac	-0.12747067
128	0xbb32be39	-0.0027274026
129	0xbdc878ca	-0.09788664
130	0xbc845e80	-0.016158342
131	0xbd9afb25	-0.07567433
132	0xbd527019	-0.051376436
133	0xbd5e48fc	-0.054268822
134	0x3d1c1afa	0.038111664
135	0x3d4257cb	0.047447007
136	0xbd58593c	-0.052819476
137	0xbd12cdc8	-0.03584078
138	0xbbcbfee6	-0.0062254546
139	0xbc801571	-0.015635224
140	0x3d255da0	0.04037249
141	0xbc375526	-0.011189735
142	0xbce5f94d	-0.028072977
143	0xbd17ca39	-0.03705809
144	0xbd46ecdf	-0.04856574
145	0xbcdf73b3	-0.02727685
146	0xbb08f035	-0.0020895128
147	0xbb172d25	-0.002306768
148	0xbd5f5ca2	-0.0545317
149	0x3d742220	0.059602857
150	0x3d681525	0.05666079
151	0xbd0e8b54	-0.034800842
152	0x3c4da9e1	0.012552709
153	0x3d083adc	0.033259258
154	0x3da4a8dc	0.0804002
155	0x3deb8e39	0.11501736
156	0x3a687bf8	0.00088685704
157	0x3d207543	0.03917433
158	0xbd1e3f65	-0.038634676
159	0xbabdccbe	-0.0014480574
160	0x3cd5fd1f	0.026121674
161	0xbda5c974	-0.08095065
162	0x3b22c369	0.0024835712
163	0x3c868618	0.016421363
164	0xbdc9db27	-0.09856253
165	0x3c65c68f	0.014024391
166	0xbd43cf68	-0.04780522
167	0x3c9bf329	0.019036846
168	0xbc99760d	-0.018733049
169	0xbc139be0	-0.009009331
170	0xbd875554	-0.06608072
171	0x3c803fd1	0.01565543
172	0x3cb9b721	0.02267033
173	0xbd128b9d	-0.035777677
174	0xbdc7fc61	-0.09764934
175	0xbb67623a	-0.003530635
176	0x3c5091ca	0.012730071
177	0xbd848260	-0.064701796
178	0xbc099bf8	-0.008399002
179	0x3c74c2df	0.014939039
180	0xbcb3d574	-0.021952368
181	0xbd0cd0a0	-0.034378648
182	0x3c2d7f51	0.010589437
183	0xbca759cb	-0.020428559
184	0xbcc892e7	-0.024484111
185	0x3cf4636b	0.029832562
186	0x3df3d4ff	0.1190586
187	0xbd8d324f	-0.06894361
188	0xbd6839f2	-0.056695886
189	0x3b8aa2d5	0.004230837
190	0xba778599	-0.000944221
191	0xbc8062c4	-0.015672095
192	0x3d83b117	0.064302616
193	0x3d22a54c	0.03970842
194	0xbcd30bd4	-0.025762476
195	0xbced5dc9	-0.028975384
196	0xbca98fbb	-0.020698419
197	0x3bb19d37	0.005420353
198	0x3dae720f	0.08517849
199	0xbb488396	-0.003059601
200	0x3bea2e60	0.0071466416
201	0xbd25474d	-0.0403512
202	0x3e0d3ec1	0.1379347
203	0xbcda6310	-0.026658565
204	0x3a4e146a	0.00078613183
205	0xbd33b46b	-0.04387323
206	0xbd779f05	-0.060454387
207	0x3d871d8d	0.06597433
208	0x3c5d18c7	0.013494677
209	0xb7970ad8	-1.8005652e-05
210	0x3d72b754	0.059256867
211	0x3dc639d7	0.09679001
212	0xbd35a227	-0.044344094
213	0xbc6db7c0	-0.014509141
214	0x3d280717	0.041022386
215	0xbc295033	-0.010334062
216	0x3d7ff9dd	0.062494148
217	0xbd6ef84d	-0.058342267
218	0x3c0f59f4	0.008749474
219	0x3d26e74f	0.040747937
220	0x3b9ddc10	0.0048174933
221	0xbd38f992	-0.045159884
222	0x3a1a4404	0.0005884769
223	0x3d64c3f4	0.055850938
224	0xbbd2e10a	-0.006435518
225	0xbd6513cd	-0.055927087
226	0xbc8118c8	-0.015758887
227	0xbb1cedd9	-0.002394548
228	0x3d148cda	0.03626714
229	0x3c300463	0.010743233
230	0x3d033a97	0.032038298
231	0x3cd52bce	0.026021864
232	0x3cd575aa	0.026057083
233	0xbd86ae5c	-0.06576225
234	0x3d41e433	0.04733677
235	0x3d118792	0.03552968
236	0x3d908952	0.07057442
237	0x3dc85a56	0.09782855
238	0xbbb3ac14	-0.00548316
239	0x3da89ebb	0.082334004
240	0xbc421dac	-0.011847895
241	0xba5d1660	-0.0008433815
242	0xbc3e5d11	-0.011618868
243	0x3d81ce51	0.0633818
244	0x3d7bd554	0.061482742
245	0x3bc3d575	0.005976374
246	0xbdb0e5b6	-0.08637564
247	0x3cab791b	0.020931771
248	0xbb9bde29	-0.004756708
249	0x396a4409	0.00022341324
250	0xbd338352	-0.04382641
251	0xbd182fee	-0.037155084
252	0xbc8e1e16	-0.01734833
253	0xbb8e9d85	-0.004352274
254	0xbd830c47	-0.06398826
255	0x3c714d38	0.014727883

conv_part.3.bias f4 [64]
0	0xbc835a23	-0.016034191
1	0x3a98abbb	0.0011647859
2	0xbb9a4149	-0.0047074896
3	0xbc0e0478	-0.008668058
4	0x3bece70f	0.007229693
5	0x3cf00745	0.029300341
6	0xbc2bdc70	-0.010489568
7	0x3b62f7cc	0.0034632562
8	0xbbd7487b	-0.0065699196
9	0xbbc295bc	-0.00593826
10	0x3c38c7ce	0.011278106
11	0xbc65f738	-0.014035992
12	0x3d30c08e	0.043152384
13	0x3b4dd2c6	0.0031406148
14	0x3c455911	0.012045161
15	0xbc9b922b	-0.018990597
16	0xbc51e731	-0.012811468
17	0x3bec04d4	0.007202724
18	0x3bb3c0c1	0.0054856245
19	0xbc147072	-0.009060012
20	0xbd034e7f	-0.03205728
21	0xbcc2b304	-0.023767002
22	0x3bb8ad9b	0.0056359298
23	0x3cf46751	0.029834421
24	0xbc6e46c9	-0.014543244
25	0xbb001d33	-0.0019548654
26	0xbc01acb5	-0.007914712
27	0xbc837d85	-0.016051063
28	0xbccbb2c6	-0.02486552
29	0xbc312c0d	-0.010813725
30	0x3a968a7e	0.0011485366
31	0xbcc79e6e	-0.024367537
32	0xbd06ea9b	-0.03293858
33	0x3d23bfac	0.039977714
34	0x3b6778fc	0.0035319915
35	0xbcaba247	-0.020951403
36	0xbd5c1acc	-0.053736493
37	0x3cc4c90b	0.024021646
38	0x3cb7f424	0.022455283
39	0x3c1bd361	0.009510846
40	0x3b8390b3	0.004015052
41	0xbce9f5e3	-0.02855963
42	0x3bcb5d67	0.006206203
43	0x3c9db2fb	0.019250384
44	0xbcc6e4e1	-0.02427906
45	0x3b69d6f9	0.0035681112
46	0x3ba63d83	0.0050732507
47	0xbb9b6cfa	-0.0047432156
48	0xbc506cda	-0.012721265
49	0xbc043ea1	-0.0080715725
50	0xbd233046	-0.03984096
51	0x3b97c7b5	0.004631961
52	0xbc59ab51	-0.013285474
53	0x3c68545d	0.01418027
54	0xbd0c2c57	-0.034221973
55	0x3b916243	0.0044367625
56	0x3ce1988a	0.027538557
57	0x3c03fe71	0.008056269
58	0xbc3a28c6	-0.01136226
59	0xbc0cd130	-0.008594796
60	0xbd0e11ab	-0.03468482
61	0xbc79cafc	-0.015246149
62	0xbbcfba79	-0.006339368
63	0xbcb2f09b	-0.021843245

conv_part.6.weight f4 [64, 64, 3, 3]
0	0x3d48be06	0.049009345
1	0x3d10d290	0.035357058
2	0x3db7eccd	0.08980713
3	0xbd3bc6f7	-0.045844045
4	0xbc37928c	-0.011204373
5	0x3d02399f	0.031793233
6	0xbafc8637	-0.0019266073
7	0x3bc803a6	0.0061039506
8	0xbd6a6d78	-0.057233304
9	0x3db0187d	0.08598421
10	0xbc50749a	-0.0127231125
11	0x3dae86e6	0.085218236
12	0xbd9ef8bd	-0.07762287
13	0xbc9f9454	-0.019479908
14	0x3caa3281	0.020776035
15	0x3d871b7d	0.0659704
16	0xbdca8568	-0.098887265
17	0xbdaa817b	-0.08325478
18	0x3cd9ce61	0.026587667
19	0x3d208573	0.039189767
20	0x3d508b0d	0.05091386
21	0x3b06c01d	0.0020561286
22	0xbddacb51	-0.10683311
23	0x3d2738e0	0.040825725
24	0x3d9f315f	0.07773089
25	0x3c143415	0.00904562
26	0x3ce149ab	0.027500948
27	0xbd55f0e9	-0.052231703
28	0xbd3b3056	-0.045700394
29	0x3cf4fd34	0.029905893
30	0xbb0d3883	-0.0021548576
31	0x3a87fa7c	0.0010374333
32	0x3c7ade76	0.015311828
33	0xb949cf90	-0.00019246177
34	0xbc691b28	-0.014227666
35	0x3c0b8b0b	0.008517037
36	0xbcac1a9a	-0.021008778
37	0x3dcbd4e0	0.09952712
38	0x3c68f2fe	0.01421809
39	0x3d38c163	0.045106303
40	0x3dab58ff	0.08366584
41	0x3dccdb97	0.10002821
42	0xbd8da6fe	-0.06916617
43	0xbddcaa79	-0.107747026
44	0xbd4d784a	-0.050163545
45	0xbd0f4a66	-0.03498306
46	0xbd2aebfa	-0.04172895
47	0xbbd48287	-0.0064852866
48	0xbd01a2de	-0.031649463
49	0xbd2a33bd	-0.041553248
50	0xbd09123e	-0.033464663
51	0x3d911b37	0.07085269
52	0x3dd2166a	0.102581814
53	0x3d256f86	0.04038956
54	0xbb694e93	-0.0035599812
55	0x3d242c8a	0.04008154
56	0xbd3381fc	-0.043825135
57	0x3c077418	0.008267425
58	0xbce425b6	-0.027850013
59	0xbd79458e	-0.06085735
60	0x3ce91465	0.028452108
61	0xbd3bd26c	-0.04585497
62	0x3d1140ad	0.03546207
63	0xbcc339c6	-0.02383126
64	0x3d0fe677	0.035131898
65	0x3e2ac5d7	0.16677032
66	0xbbaea80c	-0.0053300913
67	0xbd024e16	-0.03181275
68	0xbcf67e49	-0.030089514
69	0x3c7eb1ee	0.015545351
70	0x3d3f9025	0.046768326
71	0xbc59b158	-0.013286911
72	0x3ce5d5f6	0.028056126
73	0xbd148ccd	-0.03626709
74	0xbd3a54fd	-0.045491207
75	0x3d0b14f5	0.033955533
76	0xbce8ff98	-0.02844219
77	0x3dd48bc0	0.10378218
78	0x3c1829d5	0.009287317
79	0x3cc157d6	0.023601454
80	0x3db6e0b1	0.08929575
81	0x3c587f1b	0.013213898
82	0x3d064a43	0.032785665
83	0x3cd38d92	0.025824342
84	0x3d602382	0.054721363
85	0xbd910771	-0.070814975
86	0xbd4fc541	-0.050725225
87	0xbdcd19ef	-0.10014712
88	0xbd9c0241	-0.076176174
89	0xbc5e5eea	-0.013572434
90	0xbd6b2177	-0.05740496
91	0x3c71e659	0.014764392
92	0x3da68499	0.0813076
93	0x3d604111	0.054749552
94	0xbca42f30	-0.020042032
95	0x3dd24fa0	0.102690935
96	0x373d17e6	1.1270842e-05
97	0x3d2cd072	0.042190976
98	0x3b249542	0.0025113379
99	0x3daf6c46	0.085655734
100	0x3d0aafc4	0.03385903
101	0x3cac5f6e	0.021041598
102	0xbcc8378e	-0.024440553
103	0x3d90ef08	0.070768416
104	0xbc49d440	-0.012318671
105	0x3a9d7ac9	0.0012014742
106	0x3d0397ba	0.03212712
107	0x3b0f1ea2	0.0021838327
108	0x3d48b993	0.049005102
109	0xbca0f677	-0.019648774
110	0x3c9ef344	0.019403107
111	0x3d7e9175	0.062150437
112	0x3db31aae	0.08745323
113	0x3db39366	0.087683484
114	0xbd8630b9	-0.06552262
115	0xbd7ee308	-0.062228233
116	0x3c773f1f	0.015090733
117	0x3cc16a7f	0.023610352
118	0x3d1d5c72	0.03841824
119	0xbdc31f10	-0.09527409
120	0xbda871fe	-0.08224867
121	0x3c27f686	0.010251647
122	0x3d157435	0.036487777
123	0x3d617fa5	0.055053372
124	0x3d231f35	0.039824683
125	0x3d1380f1	0.03601164
126	0x3d7bf49f	0.061512586
127	0xbc7fe4c2	-0.015618505
128	0xbcfdddcc	-0.03098955
129	0x3cf90ee5	0.03040261
130	0x3dc1b76d	0.09458814
131	0xb97f3cad	-0.00024341299
132	0xbcf8914e	-0.030342724
133	0x3e16b3b1	0.14716984
134	0x3cf8f392	0.03038958
135	0x3d9b0b91	0.075705655
136	0x3d5ece81	0.054396156
137	0xbe155566	-0.14583358
138	0x3cc6e5e0	0.024279535
139	0xbd911ac9	-0.07085187
140	0xbc8ed2f7	-0.01743458
141	0x3d3eda37	0.046594825
142	0x3d5b24fd	0.05350207
143	0xba129c2c	-0.00055927294
144	0xbdc9c5d2	-0.09852184
145	0xbd80bf9a	-0.06286545
146	0xbb2c843e	-0.002632394
147	0x3de6b7ab	0.11265501
148	0x3d2f3a24	0.042780057
149	0x3d94735c	0.072485656
150	0x3cc16ee2	0.023612443
151	0xbb00a715	-0.0019630839
152	0x3d922d2f	0.07137524
153	0x3c85e642	0.016345147
154	0x3c82e15b	0.015976598
155	0xbbdb5b96	-0.0066942675
156	0xbd866567	-0.0656231
157	0xbc1317c9	-0.008977839
158	0xbc153a61	-0.009108157
159	0x3d8b6c0f	0.0680772
160	0x3d32ba33	0.043634605
161	0xbce918d3	-0.02845422
162	0x3d441f1e	0.04788124
163	0xbcfac92d	-0.030613506
164	0xbd90c71b	-0.07069226
165	0x3dc27b64	0.09496191
166	0x3d54d166	0.05195751
167	0xbc87196b	-0.016491612
168	0xbc61b356	-0.013775667
169	0x3c6e43ff	0.014542579
170	0x3d54050f	0.051762637
171	0x3cb3a95c	0.021931343
172	0x3d5eda20	0.05440724
173	0xbcde51f3	-0.027138686
174	0xbd842ccd	-0.064538576
175	0xbc273b01	-0.010206939
176	0xbc5cfdba	-0.0134882275
177	0x3d52b088	0.051437885
178	0x3c07fbf8	0.00829982
179	0x3cc4ee82	0.02403951
180	0x3d1c3a2d	0.03814142
181	0x3c084ec6	0.008319562
182	0x3ca58848	0.020206586
183	0x3d2ebae3	0.042658698
184	0xbc5689bc	-0.013094362
185	0x3ddc3d24	0.10753849
186	0xbc228d6e	-0.009921415
187	0xbbcc93ff	-0.0062432284
188	0x3d992f09	0.07479674
189	0xbd1c7ab0	-0.03820294
190	0xbe245be8	-0.16050684
191	0x3c2555f2	0.010091292
192	0xbd9ea1d9	-0.07745714
193	0xbd8c5c56	-0.06853549
194	0xbd4b927c	-0.049700245
195	0x3d4becb2	0.049786277
196	0x3ce38fbf	0.027778504
197	0xbd38fcfe	-0.045163147
198	0x3d1e9a6f	0.038721498
199	0x3d916f25	0.07101277
200	0x3c0cb206	0.008587366
201	0xbcba27ba	-0.022724021
202	0x3cbd3588	0.023096815
203	0xbd2abece	-0.04168587
204	0xbdc73699	-0.097272106
205	0xbd4e2ed4	-0.050337628
206	0x3c300abe	0.010744749
207	0x3d912c64	0.07088545
208	0xbd41602c	-0.047210857
209	0xbd4d795b	-0.05016456
210	0xbc4458c4	-0.011984054
211	0x3cf1d9b2	0.02952275
212	0x3c70b45c	0.0146914385
213	0x3d3802fe	0.04492473
214	0xbc43d6fa	-0.01195311
215	0xbdc4ac2f	-0.09603154
216	0x3b6f01a1	0.0036469477
217	0x3c928d65	0.017889688
218	0x3ceb9e03	0.02876187
219	0x3d013327	0.031542923
220	0x3c49cb68	0.012316562
221	0xbcf70ed6	-0.030158442
222	0xbd6200a6	-0.0551764
223	0xbb8f7510	-0.0043779686
224	0xbd14cc79	-0.036327813
225	0x3d02ca61	0.031931285
226	0x3ba98701	0.0051735644
227	0x3bde5925	0.006785529
228	0x3cc36ddc	0.023856096
229	0xbb9cd608	-0.0047862567
230	0x3d77b598	0.060475916
231	0xbcd96ec2	-0.026542071
232	0x37c3d761	2.3346105e-05
233	0x3b44a006	0.0030002608
234	0x3d01f4f8	0.03172776
235	0x3dac19f2	0.08403386
236	0xbbd07acb	-0.0063622943
237	0xbcfc4ac4	-0.03079737
238	0xbbbf4b03	-0.0058377995
239	0x3c965a78	0.018353686
240	0x3c2cf2e0	0.010555953
241	0x3d10f41c	0.03538905
242	0xbd4e2221	-0.050325517
243	0xbd3afa36	-0.045648776
244	0xbca20c72	-0.019781325
245	0xbe0b0bdb	-0.13578741
246	0x3dcea550	0.100901246
247	0x3dea946d	0.11454091
248	0x3d7fe267	0.062471773
249	0x3c8cac7b	0.017172089
250	0x3adf3732	0.0017029999
251	0x3d4077a9	0.046989117
252	0x3c807c82	0.01568437
253	0xbb9a9e04	-0.004718544
254	0x3de6e18d	0.11273489
255	0xbda1ac33	-0.078941725

conv_part.6.bias f4 [64]
0	0x3cb48ea7	0.022040678
1	0x3b2a41cc	0.002597916
2	0x3c01c4b9	0.0079204375
3	0x3c6310f1	0.01385902
4	0xbbae87da	-0.0053262534
5	0xbd253e8c	-0.040342852
6	0xbd15cabf	-0.036570307
7	0x3d0e8f35	0.03480454
8	0xbc29da5a	-0.0103670005
9	0x3bb52bf3	0.005528921
10	0x3c8db4dd	0.017298156
11	0xbd20a058	-0.039215416
12	0x3c8ce2c3	0.017197972
13	0x3b2b73ad	0.0026161477
14	0xbb9e63aa	-0.004833658
15	0xbd1c59af	-0.038171466
16	0x3c5602f6	0.013062229
17	0xbbcc2c2e	-0.0062308526
18	0xbd06d925	-0.03292193
19	0x3caff007	0.021476759
20	0xbbdade9b	-0.0066793687
21	0x3be7fad3	0.007079461
22	0xbd1478c1	-0.036247972
23	0xbd53e49c	-0.05173169
24	0x3d943ae9	0.07237799
25	0xbc7e8090	-0.015533581
26	0xbc234b67	-0.009966708
27	0xbcb05a3c	-0.021527402
28	0xbd0d010b	-0.034424823
29	0x3d369d41	0.044583563
30	0x3a3e1e5f	0.00072524505
31	0xba93213a	-0.0011225112
32	0xbbb79809	-0.005602841
33	0x3a895d58	0.0010480089
34	0x3cdfd61e	0.027323779
35	0x3d22fa55	0.039789516
36	0x3caed565	0.021341989
37	0xbcc63193	-0.02419356
38	0x3b1ab0e3	0.0023603968
39	0x3c2d6b2a	0.010584632
40	0xbc0f8ee4	-0.008762095
41	0xbd06c359	-0.03290114
42	0x3d2850dc	0.04109274
43	0xbb29f290	-0.0025931932
44	0x3cd3045a	0.02575891
45	0xbc372600	-0.0111784935
46	0xbc22d1e8	-0.009937741
47	0xba7f4cc9	-0.000973892
48	0x3a5ba258	0.0008378378
49	0x3d016503	0.031590473
50	0x3c3c9049	0.01150901
51	0xbb6b845c	-0.0035937047
52	0xbce78880	-0.02826333
53	0xbd87cb38	-0.06630558
54	0xbca8035b	-0.020509413
55	0x3b833e5c	0.0040052366
56	0x3c84c054	0.01620499
57	0xbc42c5a2	-0.01188794
58	0x3c18a7e2	0.00931737
59	0x3d5eb11d	0.054368127
60	0x3c5678ed	0.013090354
61	0xbbf0b820	-0.007346168
62	0x3bed7582	0.007246674
63	0x3c03a189	0.008034118

fc_part.0.weight f4 [64, 576]
0	0xbd8927ac	-0.0669702
1	0xbcafe6a5	-0.021472285
2	0xbc13d3e0	-0.009022683
3	0x3d1d58fe	0.038414948
4	0xbc46441a	-0.012101198
5	0xbd2a144f	-0.041523274
6	0x3de479c8	0.111560404
7	0x3dc6bca6	0.097039506
8	0x3c2a45bf	0.010392605
9	0xbd12651a	-0.03574095
10	0x3c51f994	0.012815852
11	0xbd79ddad	-0.061002422
12	0xbd9f7172	-0.0778531
13	0xbbbbd37a	-0.005731997
14	0x3d1cdaff	0.03829479
15	0x3c7f7e59	0.0155940885
16	0x3d4c55a3	0.049886357
17	0x3d0d90d0	0.034561932
18	0xbb1bc1a0	-0.0023766533
19	0xbc2f4d29	-0.010699549
20	0x3d8f13df	0.06986212
21	0xbc0e59a3	-0.008688363
22	0x3d3f9672	0.046774335
23	0x3db7d172	0.089754954
24	0x3c6d6bd9	0.014491045
25	0xba72a440	-0.00092560425
26	0x3cb790c7	0.022407902
27	0x3bb05930	0.0053817257
28	0x3cbdcabb	0.023167958
29	0x3d5265ec	0.05136673
30	0x3d6c774a	0.05773095
31	0x3cf62184	0.030045278
32	0xbcdfab7e	-0.027303454
33	0x3d3a4cf6	0.045483552
34	0xbd4e2d44	-0.050336137
35	0xbceb5f79	-0.028732048
36	0x3c8447a3	0.01614744
37	0x3d3f84ce	0.04675751
38	0xbd1a9575	-0.03774019
39	0x3c86bcf3	0.01644752
40	0xbd3e1229	-0.046404038
41	0xbc9cdf14	-0.01914934
42	0xbd4d6cc3	-0.05015255
43	0xbd7f1ecb	-0.062285226
44	0x3d83ca19	0.064350314
45	0x3b78d18f	0.0037966704
46	0x3c91a8df	0.01778072
47	0x3d975e88	0.07391077
48	0x3bf426f5	0.007450933
49	0x3badbcbf	0.0053020413
50	0x3c8b4271	0.016999455
51	0xbc815486	-0.015787374
52	0xbd0d4653	-0.034490895
53	0xbd753b07	-0.059870746
54	0xbc728a25	-0.014803444
55	0x3d230222	0.039796956
56	0xbd0a97a0	-0.033836007
57	0x3c315033	0.010822344
58	0x3d774e21	0.060377244
59	0xbcee55fd	-0.029093737
60	0x3c6ff559	0.014645898
61	0xbc77cb41	-0.015124143
62	0xbc724bd4	-0.014788587
63	0xbcd3c430	-0.025850385
64	0xbcfbd5d9	-0.030741619
65	0xbb08419c	-0.002079106
66	0x3cd31869	0.025768476
67	0x3c2fe495	0.010735651
68	0x3d88d6e1	0.0668161
69	0x3de726bf	0.11286687
70	0x3db9777b	0.09055992
71	0x3d5b4c3e	0.053539507
72	0xbd565fcc	-0.052337453
73	0xbcf66ace	-0.030080225
74	0xbd555dc4	-0.052091375
75	0xbd355900	-0.04427433
76	0xbd45c004	-0.048278823
77	0x3c8d7a01	0.01727009
78	0x3d2ecee2	0.042677768
79	0xbba0e936	-0.0049106134
80	0x3c1636de	0.009168355
81	0x3c8be6f4	0.0170779
82	0x3a7bc24e	0.0009603844
83	0x3c8d67b4	0.017261364
84	0xbd5e544d	-0.054279614
85	0xbd11d8d7	-0.035607185
86	0xbc0bf1a8	-0.008541502
87	0x3d2e415a	0.042542793
88	0x3ceface3	0.029257243
89	0xbbb47c8b	-0.0055080107
90	0xbba2f8a2	-0.004973487
91	0xbcd21139	-0.025642978
92	0xbce708fd	-0.028202528
93	0xbb3d7085	-0.0028906178
94	0xbd05d563	-0.032674205
95	0xbbc80a14	-0.006104717
96	0x3cd9273b	0.026507964
97	0x3d6eedf4	0.0583324
98	0x3d8cfde7	0.068843655
99	0xbcf7b06e	-0.030235495
100	0x3b4c83bc	0.003120645
101	0xbe0374ea	-0.12837568
102	0x3c236ca8	0.009974636
103	0x3c454b6f	0.012041911
104	0x3d133e50	0.035948098
105	0xbc6842c8	-0.014176078
106	0xbc986d98	-0.018606946
107	0x3b65a35d	0.003504
108	0xbd782c87	-0.06058934
109	0x3c917eee	0.01776072
110	0xbd1898fa	-0.037255265
111	0xbdbc847f	-0.09204959
112	0x3c5645e3	0.013078186
113	0xbc84c7f7	-0.016208632
114	0x3ca46bd7	0.020070953
115	0xbca7b791	-0.020473273
116	0x3ce2e633	0.027697658
117	0xbdadb33f	-0.08481454
118	0xbd51819e	-0.051149003
119	0xbd64d2cd	-0.055865098
120	0xbd5ac68f	-0.053412016
121	0x3d26421d	0.040590394
122	0x3cb2f757	0.021846456
123	0x3d006a6c	0.03135149
124	0x3df1043b	0.11768385
125	0x3d8a3b7e	0.067496285
126	0xbbf69076	-0.0075245453
127	0xbcecc95e	-0.028904613
128	0xbc3e3e3f	-0.01161152
129	0x3cdf7de2	0.027281705
130	0x3b0f2288	0.002184065
131	0x3ca165df	0.019701896
132	0x3bdd6af3	0.006757134
133	0x3d3fe55b	0.04684959
134	0xbbb9786b	-0.005660107
135	0x3cedb0b8	0.02901493
136	0x3cc423df	0.023942886
137	0x3d8001fb	0.06250378
138	0xbbf2af74	-0.0074061695
139	0x3cd57162	0.026055042
140	0xbd019f05	-0.031645793
141	0x3d5c3574	0.053761914
142	0x3d0ffe77	0.035154786
143	0xbd2c203d	-0.042022932
144	0x3cfa1cbb	0.030531278
145	0xbc855635	-0.016276458
146	0xbd62a68f	-0.055334624
147	0xbd4b128e	-0.049578242
148	0xbd96ea8c	-0.07368955
149	0xbd13f262	-0.036119826
150	0xbda7fc41	-0.082024105
151	0x3c5d67ac	0.013513487
152	0x3d46e449	0.048557553
153	0x3ce589df	0.028019844
154	0xbb52b45e	-0.0032150964
155	0xbbc9d0f3	-0.006158942
156	0x3c12a6f9	0.008950942
157	0xbd15ba45	-0.036554594
158	0x3d13a512	0.036046095
159	0xbc122173	-0.008919108
160	0x3b75a70b	0.0037483599
161	0x3d5dc4fb	0.054142933
162	0xbc6b8d95	-0.0143770175
163	0x3cffe3e8	0.031236604
164	0x3d090338	0.033450335
165	0xbcbe853e	-0.023256894
166	0xbd09e8db	-0.033669334
167	0x3c119c98	0.0088874325
168	0xbcd69877	-0.026195748
169	0xbcbcc005	-0.02304078
170	0xbcb0c0e9	-0.021576362
171	0xbcbe7ebd	-0.023253793
172	0xba6e3f9e	-0.0009088459
173	0x3c0f8ec2	0.008762063
174	0x3d296c8b	0.04136328
175	0xbbed4139	-0.007240441
176	0xbbbfd190	-0.005853839
177	0xbc33b0bf	-0.0109674325
178	0xbd6d95cf	-0.058004197
179	0xbb4b7034	-0.003104222
180	0x3d1d4b46	0.038401864
181	0x3c8910a6	0.016731571
182	0x3c841d23	0.016127175
183	0x3b89ce95	0.0042055347
184	0x3d3b990c	0.045800254
185	0xbd30743a	-0.043079592
186	0xbb8b5dbc	-0.0042531174
187	0xbd9fb40d	-0.07798014
188	0xbd591e6d	-0.053007532
189	0x3c800907	0.015629305
190	0x3ceca6c7	0.02888812
191	0x3cafd655	0.021464506
192	0xbcf5b454	-0.029993214
193	0xbd364d49	-0.0445073
194	0x3c6c245e	0.0144129675
195	0xbd97b223	-0.07407024
196	0xbd5d5065	-0.05403175
197	0xbcdcb37e	-0.026941057
198	0xbb9b5b59	-0.004741114
199	0x3d13f979	0.036126588
200	0xbbc9e787	-0.0061616334
201	0x3d26711c	0.040635213
202	0x3b03fe32	0.0020140526
203	0x3d664595	0.056218702
204	0xbd3f12d5	-0.04664882
205	0xbcebeee4	-0.028800435
206	0xbd4c3343	-0.049853574
207	0xbcab1513	-0.020884072
208	0xbc82eec8	-0.015983
209	0x3d698902	0.057015426
210	0x3d51dfe3	0.051238906
211	0x3dc9b44c	0.09848842
212	0x3ce3a4a0	0.02778846
213	0xbd034197	-0.032044973
214	0xbcd91083	-0.026497131
215	0xbca50121	-0.02014214
216	0xbd5a079c	-0.053229913
217	0xbd0f345e	-0.03496205
218	0xbcaf9710	-0.021434337
219	0x3cc25408	0.02372171
220	0xbd43b6b3	-0.047781657
221	0xbd145570	-0.036214292
222	0x3c63bcd4	0.013900001
223	0xbbe862db	-0.0070918626
224	0x3d9efcbe	0.077630505
225	0xbc255a35	-0.010092308
226	0xbbced42b	-0.0063119135
227	0x3d72cdfb	0.05927847
228	0x3baefe6b	0.0053403876
229	0xbd24af21	-0.04020608
230	0x3c043e76	0.0080715325
231	0x3c2a8276	0.010407081
232	0x3d51f0a1	0.051254872
233	0x3cc84ab6	0.024449687
234	0xbab3d29d	-0.0013719384
235	0xbd18d96a	-0.037316717
236	0xbcb58e74	-0.022162654
237	0x3b766bdf	0.0037600917
238	0x3d61a9e5	0.055093665
239	0x3c3ee948	0.011652298
240	0xbc8996e1	-0.016795577
241	0x3a277bd1	0.00063889945
242	0xbd8b14de	-0.067910895
243	0xbc536951	-0.012903527
244	0x3c44bf6b	0.012008528
245	0x3bab5e00	0.0052297115
246	0x3cfc9943	0.0308348
247	0x3d1d9bd8	0.038478702
248	0x3b58e04e	0.003309268
249	0xbd2b56bc	-0.041830763
250	0x3d390c9f	0.045178052
251	0x3cc9f5c3	0.024653321
252	0x3d7ad789	0.061240707
253	0x3b99cfd0	0.0046939626
254	0xbcd6770d	-0.026179815
255	0xbd03b903	-0.032158863

fc_part.0.bias f4 [64]
0	0xbc161cd5	-0.0091621475
1	0xbc563bf3	-0.013075816
2	0xbad43534	-0.0016190172
3	0x3ca8666a	0.020556647
4	0x3da12eb4	0.07870236
5	0x3c6744b2	0.014115499
6	0x3cb4e220	0.022080481
7	0x3cd36124	0.025803156
8	0xbca21293	-0.019784248
9	0xbcdb5fcb	-0.026779076
10	0x3ce47047	0.02788557
11	0xbc62aca4	-0.013835106
12	0x3caaf0ac	0.020866714
13	0x3cd8114f	0.02637544
14	0x3c88981b	0.016674092
15	0x3c8f31ee	0.017479863
16	0xbb6c4761	-0.0036053287
17	0x3cc17c3b	0.023618808
18	0x3bb3bdf0	0.005485289
19	0x3cf0b3be	0.029382583
20	0x3ce759a0	0.028240979
21	0x3cd46c40	0.025930524
22	0xbd08cda4	-0.03339924
23	0xbd5b7d69	-0.053586397
24	0x3c29b419	0.01035788
25	0x3d002072	0.031280942
26	0x3b85f3a0	0.0040878803
27	0xbad72349	-0.0016413714
28	0x3c3c4a12	0.011492269
29	0x3cdbfaf0	0.026853055
30	0xbc67d643	-0.014150205
31	0xbcf4d32b	-0.029885849
32	0xbb86ce36	-0.0041139377
33	0xbcdfcb62	-0.02731866
34	0xbd0fbd0d	-0.035092402
35	0xbc96a019	-0.018386887
36	0x3c17c3af	0.009262963
37	0xbd0910e2	-0.033463366
38	0x3d034f5f	0.032058116
39	0xbc801037	-0.015632732
40	0xbc2765ed	-0.010217172
41	0xbc48320d	-0.012218964
42	0x3c8cc3a7	0.017183138
43	0xbc88e56f	-0.016710965
44	0x3c2ab6e3	0.01041958
45	0x38ca7655	9.654152e-05
46	0x3b4a5cdd	0.0030878105
47	0xbcad0162	-0.021118823
48	0xbc1f84ff	-0.009736299
49	0xbd517127	-0.0511333
50	0x3d285dbd	0.04110502
51	0xbd0a5b7e	-0.03377866
52	0x3bc64812	0.006051072
53	0x39daa29b	0.0004170135
54	0xbc51a240	-0.012795031
55	0xbb92f3fe	-0.0044846525
56	0xbb8c102d	-0.0042743892
57	0x3cf66f13	0.030082261
58	0x3bdb1d6d	0.0066868574
59	0xbcaae37c	-0.020860426
60	0xbb66bc4d	-0.003520745
61	0x3cde6cdb	0.027151516
62	0x3d5c8113	0.053834032
63	0xbca5c53b	-0.020235648

fc_part.2.weight f4 [10, 64]
0	0xbd4c9ee3	-0.049956214
1	0xbdbdbc51	-0.09264434
2	0x3da2f4c5	0.07956842
3	0x3e2865a6	0.16445026
4	0xbe61e118	-0.22058523
5	0x3d9d16fc	0.076703995
6	0x3de98f21	0.11404253
7	0x3eca6856	0.39532727
8	0x3dceb080	0.100922585
9	0x3d794c5c	0.060863838
10	0xbd4cd27b	-0.050005417
11	0x3ca6fada	0.020383287
12	0x3ebbcd0d	0.3667988
13	0xbe47a430	-0.19496226
14	0xbd952677	-0.07282727
15	0xbd0abed8	-0.03387341
16	0x3e1f3cda	0.15550557
17	0xbe145ba4	-0.14488083
18	0xbe8a33dd	-0.26992694
19	0xbe8ec705	-0.27886215
20	0xbe223f4d	-0.1584446
21	0xbdb44881	-0.088028915
22	0x3d1c2212	0.03811843
23	0xbe248b49	-0.16068758
24	0x3cd3fab1	0.025876375
25	0x3dd974fc	0.10618016
26	0xbd3b9c9f	-0.045803662
27	0xbdf93783	-0.12168791
28	0x3d8b09d2	0.067889825
29	0xbe87dd64	-0.26536095
30	0x3d3f39ec	0.046686098
31	0x3e6d77bb	0.23190205
32	0x3dc3e647	0.09565406
33	0xbc30e3de	-0.010796515
34	0x3d61ac0b	0.055095714
35	0x3ed1b0db	0.40955243
36	0x3e40641d	0.1878819
37	0x3caaeffb	0.020866385
38	0xbe24a085	-0.16076858
39	0x3daa5d34	0.08318558
40	0x3d32ae5a	0.043623306
41	0x3e40eb40	0.18839741
42	0x3d6b836e	0.057498388
43	0x3d72d96a	0.059289373
44	0xbe97db74	-0.29659617
45	0x3dc72289	0.09723384
46	0xbe227e83	-0.15868573
47	0x3d7f6577	0.062352624
48	0xbdfe6fb6	-0.12423651
49	0x3d53ffc6	0.051757596
50	0x3b675abd	0.0035301887
51	0x3d5b36c1	0.053519014
52	0xbeba7e35	-0.36424413
53	0xbe2b5ee9	-0.16735424
54	0x3e4b4dea	0.1985394
55	0xbded9931	-0.116014846
56	0x3e2ea048	0.1705333
57	0x3d90ac73	0.07064142
58	0x3b3e0563	0.002899491
59	0x3e06985a	0.13144055
60	0xbd611362	-0.054950126
61	0xbe261e4c	-0.16222495
62	0xbe331c75	-0.17491324
63	0x3eaaa5a7	0.33329508
64	0xbe83d662	-0.257495
65	0xbe69678b	-0.22793405
66	0x3e35bdd7	0.177482
67	0xbd106903	-0.035256397
68	0x3d5070f2	0.050888963
69	0x3d1dd16c	0.0385298
70	0x3dc23bf8	0.094840944
71	0xbdf892f7	-0.12137406
72	0x3d1531c1	0.036424402
73	0x3ca90124	0.020630427
74	0x3df2defb	0.118589364
75	0x3d972335	0.07379762
76	0xbe350c27	-0.17680417
77	0xbdedf89f	-0.11619686
78	0x3d9f9b33	0.07793274
79	0x3e947e34	0.29002535
80	0x3c7d4b9e	0.015459923
81	0x3dd8766b	0.105694614
82	0x3e449b9d	0.19199987
83	0x3d2b00bb	0.041748744
84	0x3ecb2140	0.39673805
85	0xbea34e7a	-0.3189581
86	0xbcbe9f6c	-0.023269378
87	0xbeb985db	-0.36234936
88	0xbe304bf4	-0.17216474
89	0x3cf481f8	0.02984713
90	0x3dac8e38	0.084255636
91	0xbdffc4ca	-0.124887064
92	0x3da956ff	0.08268546
93	0x3e301d31	0.17198636
94	0xbdca4601	-0.098766334
95	0xbe0dae2c	-0.13835973
96	0xbdc4a188	-0.09601122
97	0xbe1cdbcd	-0.15318222
98	0x3e857ee6	0.26073378
99	0xbdbe4966	-0.092913434
100	0xbdcf1b5f	-0.101126425
101	0x3d8351c7	0.06412082
102	0x3d9a0d4d	0.07522068
103	0xbddcdb47	-0.10784011
104	0x3e3ba76c	0.18325585
105	0x3e347c39	0.17625512
106	0x3e682111	0.22668864
107	0x3c171eff	0.009223699
108	0x3dd23190	0.102633595
109	0xbc429d99	-0.0118783945
110	0x3ebb2b42	0.3655644
111	0x3dbb4c21	0.0914538
112	0x3bcc6700	0.0062378645
113	0x3d883ee2	0.06652619
114	0x3e697784	0.22799498
115	0xbe9e476e	-0.30913872
116	0xbdec9288	-0.11551386
117	0xbe61fe47	-0.22069655
118	0xbe80a9f3	-0.2512966
119	0x3e4624bb	0.19349949
120	0x3dc6bf2c	0.09704432
121	0xbd9f21ad	-0.07770095
122	0x3d6570b4	0.056015685
123	0xbe89900f	-0.2686772
124	0x3d558b97	0.052135076
125	0xbdfb9ea7	-0.1228612
126	0x3ec9f0e4	0.39441597
127	0xbe44c3d5	-0.19215329
128	0xbd86ac76	-0.06575863
129	0xbd22b3c6	-0.039722227
130	0x3eb5eafa	0.35530835
131	0x3dfe32b7	0.12412017
132	0x3eb1aa96	0.3470046
133	0xbc112a95	-0.00886025
134	0xbe13ad5d	-0.14421602
135	0xbe163ad0	-0.14670873
136	0xbdacdff1	-0.08441151
137	0x3da9e5d5	0.0829579
138	0x3d923d2d	0.071405746
139	0x3e758b31	0.23978879
140	0xbd1ae820	-0.037819028
141	0xbda65633	-0.0812191
142	0x3eb7717a	0.35828763
143	0x3dc6b798	0.097029865
144	0xbd9e41d7	-0.07727402
145	0xbc97ceb4	-0.01853118
146	0xbe0bbfc9	-0.13647379
147	0xbd9eb343	-0.07749035
148	0xbe1bae39	-0.1520318
149	0x3cdaf0e5	0.026726196
150	0x3dedb380	0.116065025
151	0x3de52afb	0.111898385
152	0xbdcaadf9	-0.09896464
153	0xbd81ed2c	-0.06344065
154	0x3e0c3fde	0.13696238
155	0xbdec48d2	-0.11537327
156	0x3d106d79	0.03526065
157	0x3dbe5130	0.09292829
158	0xbe0aa90e	-0.13541052
159	0x3ec8b015	0.3919684
160	0x3e48ea77	0.19620691
161	0xbd4ae73f	-0.04953694
162	0xbead22d5	-0.33815637
163	0xbdf596ad	-0.1199163
164	0x3d5a87c1	0.05335212
165	0xbb6196b5	-0.0034422104
166	0x3ea3d2f1	0.31996873
167	0xbde59196	-0.11209409
168	0x3eb5f8e4	0.3554145
169	0xbe39a813	-0.18130521
170	0xbe217a43	-0.15769295
171	0xbb813b0d	-0.003943807
172	0xba249bd8	-0.0006279326
173	0xbe5b0977	-0.2139033
174	0xbe95b2b4	-0.29237902
175	0xbdd8c5c4	-0.10584596
176	0xbe47ee7d	-0.1952457
177	0xbdfdc2b5	-0.12390653
178	0x3d736aa3	0.05942787
179	0xbdda9d83	-0.10674574
180	0xbd4f4b06	-0.050608657
181	0xbe7375ec	-0.23775452
182	0x3d883f1c	0.06652662
183	0xbe99660c	-0.29960668
184	0xbe234289	-0.1594335
185	0x3e7393cf	0.23786853
186	0x3ce7085a	0.028202225
187	0x3d2353c1	0.039874796
188	0x3ee19dbf	0.44065663
189	0x3d83f725	0.064436235
190	0x3ea6a5d4	0.32548392
191	0x3e3eda24	0.18637902
192	0x3da5ffd8	0.08105439
193	0xbe693c10	-0.22776818
194	0xbe336e26	-0.17522487
195	0xbe81b2e0	-0.25331783
196	0x3d1d47d6	0.038398586
197	0xbd6caac7	-0.057780053
198	0xbe025080	-0.12726021
199	0xbe8107f5	-0.25201383
200	0x3e77d346	0.24201688
201	0xbc96695c	-0.018360786
202	0x3d3e2ee5	0.04643144
203	0xbd9a9ccb	-0.07549437
204	0xbdcdd8e0	-0.10051131
205	0xbe3f3ed9	-0.18676318
206	0x3d059c45	0.032619733
207	0x3cfe9419	0.031076478
208	0xbd77d6f4	-0.06050773
209	0x3e5b305f	0.21405171
210	0x3e31c28e	0.17359373
211	0x3ed27ca8	0.4111073
212	0xbe9cf27d	-0.30653754
213	0x3dbcdee3	0.092222
214	0xbe483743	-0.1955233
215	0x3dea407c	0.11438081
216	0x3d501f9a	0.050811388
217	0xbdb021de	-0.0860021
218	0xbd191c18	-0.037380308
219	0x3e946101	0.28980258
220	0xbdd1723d	-0.10226867
221	0x3e90f4f0	0.28311872
222	0xbd0a4fa5	-0.03376736
223	0xbd30e5cd	-0.043187905
224	0xbe310760	-0.1728797
225	0xbb9c8da3	-0.0047776266
226	0xbd4eecfd	-0.05051898
227	0x3dd8b01d	0.10580466
228	0x3d879211	0.06619657
229	0xbde8927a	-0.11356063
230	0xbe8c298a	-0.27375442
231	0xbe22abc4	-0.15885836
232	0x3ed64dfc	0.41856372
233	0xbd09363a	-0.03349898
234	0xbd218ae6	-0.039439104
235	0x3dc4d4d7	0.096109085
236	0xbd525c37	-0.051357474
237	0xbd20b357	-0.03923353
238	0xbded3ab1	-0.1158346
239	0xbe5d5b95	-0.21616967
240	0x3e9114a5	0.28336063
241	0xbde625e9	-0.112376995
242	0xbdc082e2	-0.09399964
243	0xbe0840dd	-0.13305993
244	0x3ead87b4	0.33892596
245	0x3e523fc6	0.2053214
246	0x3e1b84c2	0.15187362
247	0x3e150b90	0.14555192
248	0xbe008ba4	-0.12553269
249	0x3cc06ab4	0.02348838
250	0x3d58f784	0.052970424
251	0x3cfbc662	0.030734245
252	0xbda922e0	-0.08258605
253	0xbc3238c9	-0.010877796
254	0xbe716cdf	-0.23576687
255	0xbe887969	-0.2665513

fc_part.2.bias f4 [10]
0	0xbdcd3d74	-0.10021487
1	0xbd406961	-0.046975497
2	0x3c28eb61	0.010310025
3	0xbce15197	-0.027504725
4	0xbc459249	-0.012058803
5	0xbd8b9604	-0.068157226
6	0xbdbe4788	-0.09290987
7	0x3e458ecb	0.19292752
8	0xbbfd0687	-0.0077217254
9	0xbdb16fa4	-0.08663872

momentum_buffer f4 [32, 1, 3, 3]
0	0x3a9d24e4	0.0011989144
1	0xbba6fa49	-0.0050957543
2	0xbbafc11f	-0.005363598
3	0x3a214f34	0.0006153465
4	0xba9763a3	-0.001155008
5	0xbb598deb	-0.0033196162
6	0x3b05b6cd	0.0020403147
7	0x3ad94b6a	0.0016578261
8	0xb99dca2b	-0.00030096
9	0x3c4b0988	0.012392409
10	0x3c09581b	0.008382822
11	0x3b89472b	0.004189392
12	0x3bbdd592	0.005793282
13	0xbac5fb71	-0.0015104843
14	0xbaeddd1c	-0.0018147561
15	0x3b0fd618	0.0021947678
16	0xbbd91873	-0.006625229
17	0xbbaa18b8	-0.005190935
18	0xbb0c84e8	-0.0021441523
19	0xbb5aa04c	-0.0033359705
20	0xbbcc267e	-0.0062301746
21	0xba7ff76e	-0.0009764348
22	0x3b68fa96	0.0035549751
23	0x3c213d83	0.009841326
24	0x3c424c63	0.011859032
25	0x3c249019	0.010044121
26	0x3b97af84	0.0046290774
27	0x3ab548be	0.0013830883
28	0xbad15fc6	-0.0015973977
29	0xbb737097	-0.0037145966
30	0x3b59c32a	0.00332279
31	0x3a9ca9fc	0.0011952515
32	0x3a410539	0.0007363144
33	0x3b513ea5	0.0031928208
34	0x3b3ee4a4	0.002912798
35	0x3b8becb2	0.0042701596
36	0x392127f5	0.00015369042
37	0xbb2c72f7	-0.0026313642
38	0xbba42c28	-0.0050101466
39	0x3baf6ddb	0.005353672
40	0x3a83f18f	0.0010066497
41	0xbb69b8cd	-0.0035663128
42	0x39ce30b8	0.0003932768
43	0xbaf48a58	-0.0018656952
44	0xb9b89b66	-0.00035210996
45	0x39c6f578	0.0003794839
46	0x3a866868	0.0010254504
47	0x3b774f9f	0.0037736667
48	0xbba172b7	-0.004927005
49	0xbba57acc	-0.005050039
50	0x3ac1699a	0.0014756203
51	0xbc2c325b	-0.010510053
52	0xbbe060d4	-0.0068474803
53	0x3b1665f4	0.0022948952
54	0xba93ac83	-0.0011266622
55	0xbad0d7a3	-0.0015933405
56	0xbba15bb0	-0.00492426
57	0x3b4fd53a	0.0031712786
58	0x3b7dda98	0.0038735028
59	0x3ac480c7	0.0014991992
60	0x3bb15e4f	0.005412854
61	0x3bc70168	0.0060731657
62	0x3b75b971	0.0037494565
63	0x3b55c286	0.0032617166
64	0xbb8f95ba	-0.0043818625
65	0xbb8549f7	-0.004067655
66	0x3a0af2e6	0.0005300477
67	0xbba65a14	-0.005076656
68	0xbac6da92	-0.001517134
69	0xbb87a4e3	-0.004139529
70	0xbbf18997	-0.0073711383
71	0xba4feccb	-0.0007931708
72	0xbbc5d124	-0.0060368944
73	0xbb6c2322	-0.0036031683
74	0xba515174	-0.0007984855
75	0xbbd77de7	-0.006576288
76	0xbaff1686	-0.0019461669
77	0x3af4d6d3	0.0018679745
78	0xbba88c47	-0.0051436755
79	0x3ae97412	0.0017811081
80	0x3bc039ad	0.0058662505
81	0x3c7ab5ad	0.015302104
82	0x3c4458f2	0.011984097
83	0x3c0c7c04	0.0085744895
84	0x3c5fc40c	0.013657581
85	0xba7b53db	-0.00095873856
86	0xbc06ee42	-0.008235516
87	0xb9fbee80	-0.00048052147
88	0xbc85dee9	-0.016341643
89	0xbc13f2e3	-0.009030077
90	0xbb87624c	-0.004131591
91	0xbbff15b4	-0.0077845696
92	0xbbab08c6	-0.0052195517
93	0xbab264b2	-0.0013610332
94	0x3ae34ab5	0.001734099
95	0x3bb8314c	0.005621111
96	0xba0ed6c4	-0.00054488727
97	0x3a659c9a	0.0008758992
98	0x3ab12aa0	0.0013516732
99	0x3b94c236	0.0045397533
100	0xbad97308	-0.0016590068
101	0xb9f145a8	-0.00046019
102	0x3af0cbd4	0.0018371292
103	0xbb4d3a99	-0.0031315445
104	0xba6418a8	-0.0008701184
105	0xba80eb5b	-0.0009835766
106	0xbb4997c2	-0.003076062
107	0x3bad0941	0.005280644
108	0xbb172ece	-0.002306867
109	0xbb79303d	-0.0038023137
110	0xbb21a8f2	-0.002466735
111	0xbb340b91	-0.0027472714
112	0xbab6773d	-0.0013921034
113	0xb9fbabcc	-0.0004800245
114	0xba1e7429	-0.0006044531
115	0xba47c056	-0.0007619908
116	0x3a3fe8fc	0.0007320789
117	0xbb5d58d5	-0.0033774872
118	0xbb02faed	-0.001998599
119	0xbb607373	-0.00342485
120	0xbc00f195	-0.007870098
121	0xbbd2591a	-0.006419313
122	0xbbbbabf2	-0.0057272846
123	0xbc3a6d16	-0.011378547
124	0xbba7a804	-0.0051164646
125	0xbb748bbe	-0.0037314738
126	0xbb03e605	-0.0020126116
127	0xbb3dfd00	-0.002898991
128	0x39854f7d	0.0002542696
129	0x3b0e8fae	0.002175312
130	0x3b7eb3fc	0.0038864603
131	0x3bc9aeb8	0.0061548613
132	0x3b25fa64	0.0025326246
133	0x3bb0c8be	0.005395024
134	0x3bd75339	0.0065712
135	0xbc13e6ab	-0.0090271635
136	0xbb9231ac	-0.0044614878
137	0x3b42ae51	0.0029705951
138	0xbbd5d402	-0.0065255174
139	0xbb8fb732	-0.0043858523
140	0xbac3d8ea	-0.0014941965
141	0x3ad4ec32	0.0016244708
142	0x3b1120ec	0.0022144867
143	0xbbaea8d4	-0.0053301845
144	0x3b09dc07	0.0021035688
145	0xbc16eec0	-0.009212196
146	0xbc693eb4	-0.014236141
147	0x3bb5bac4	0.005545946
148	0x3b002087	0.0019550638
149	0xbbb61880	-0.00555712
150	0x3c33b5d5	0.010968645
151	0x3af423dc	0.001862641
152	0xbbee1059	-0.0072651324
153	0x3b0ccd56	0.0021484694
154	0xbb9a01be	-0.0046999147
155	0xbc1b1b02	-0.009466888
156	0xbbad9078	-0.005296763
157	0xbc4b12fe	-0.012394665
158	0xbc4cd52c	-0.012501996
159	0xbc2c4ff6	-0.010517111
160	0xbc41817e	-0.0118106585
161	0xbc67ce55	-0.0141483145
162	0xbab854e4	-0.0014063385
163	0xba196eeb	-0.0005853015
164	0x3b570f5a	0.0032815547
165	0x3baaf8c5	0.005217644
166	0x3be0ea22	0.0068638483
167	0x3c46df94	0.012138266
168	0x3c2d7e3c	0.010589179
169	0x3bea4ede	0.007150515
170	0x3bd82b3a	0.00659695
171	0xbb2cc252	-0.002636094
172	0xbbe4d951	-0.006983914
173	0xbbf76c92	-0.0075507844
174	0xba5d1a88	-0.00084344344
175	0xbb1ed1be	-0.0024233903
176	0x3894a9d0	7.08882e-05
177	0x3bdfd2c8	0.006830547
178	0x3b94b1cd	0.004537797
179	0x3ad09b4c	0.0015915423
180	0x3ac02912	0.0014660677
181	0xbac92137	-0.0015344982
182	0xbbbed83c	-0.005824117
183	0x3bd3affd	0.0064601884
184	0x3ba301fe	0.0049746027
185	0x3a7e6a1c	0.00097051426
186	0x3c4e522f	0.012592836
187	0x3b595089	0.0033159575
188	0xbb361d74	-0.0027788552
189	0xbb56a3fc	-0.003275155
190	0xbab4d052	-0.0013794994
191	0xbb85e322	-0.004085914
192	0xb997d1bd	-0.00028957232
193	0xbadbb66e	-0.0016762742
194	0xbb62b20f	-0.0034590994
195	0x3a4d371d	0.0007828342
196	0x3aa3fa42	0.0012510496
197	0xba698268	-0.00089076767
198	0xbb8c85f3	-0.004288429
199	0xbb2eaa1d	-0.0026651688
200	0x3af49bc3	0.0018662143
201	0xbc022950	-0.00794442
202	0xbbd42509	-0.0064741415
203	0x3b4478fe	0.0029979344
204	0xbc6893a0	-0.014195353
205	0xbba37d18	-0.0049892776
206	0x3c49ba00	0.012312412
207	0x3ac3024e	0.0014878006
208	0xbb9a1718	-0.00470246
209	0xbbef9cbb	-0.007312385
210	0xbba385f9	-0.004990336
211	0xbc09c9f7	-0.008409969
212	0xbbc870c7	-0.0061169597
213	0xbbd4757d	-0.0064837323
214	0xbb3610fd	-0.0027781122
215	0x3a35aad0	0.0006930055
216	0x3ad6dae6	0.0016392141
217	0xb9dea7d8	-0.00042468193
218	0xbbb633a0	-0.0055603534
219	0x3b2608d0	0.0025334843
220	0xbb9f3bfc	-0.0048594456
221	0xbc11ebf1	-0.0089063505
222	0x3b71d113	0.00368983
223	0xbba36ddc	-0.0049874615
224	0xbbd80c8c	-0.0065932926
225	0x3baf0c58	0.0053420477
226	0xbab00cc8	-0.0013431543
227	0xbbad5a28	-0.0052902885
228	0x3c0aa848	0.008462973
229	0x3af8bc22	0.0018976966
230	0xbb1879d3	-0.0023265972
231	0x3c1382bf	0.00900334
232	0xba7d1708	-0.0009654616
233	0xbb5fd42f	-0.003415357
234	0x39be273a	0.0003626885
235	0xbbc1a5c6	-0.0059096543
236	0xbb3420f4	-0.0027485462
237	0x3ac18546	0.001476445
238	0x39158a8c	0.0001426136
239	0x3a7ac892	0.00095666305
240	0x3ac58c73	0.0015071764
241	0x3ac8fe5e	0.0015334596
242	0x3ad4d4b7	0.001623771
243	0xbb2aa164	-0.0026036138
244	0xbb1739a4	-0.0023075128
245	0xbb0b6eaa	-0.0021275678
246	0xbb5b9d34	-0.0033510448
247	0xbb9a5070	-0.004709296
248	0xbabc87ba	-0.0014383711
249	0xbb2d3d82	-0.0026434367
250	0xb987fb60	-0.00025936496
251	0x3a8f7cce	0.0010947229
252	0xbbee2bc2	-0.0072684
253	0xbb1ad3f0	-0.002362486
254	0x3b88d6b6	0.004175986
255	0xbbe33b3a	-0.0069345506

momentum_buffer f4 [32]
0	0xbb871274	-0.004122073
1	0xbb03876e	-0.0020069736
2	0xbc9ff96c	-0.019528113
3	0xbb219194	-0.0024653422
4	0xbb73d0b5	-0.0037203257
5	0x3b692a64	0.0035578245
6	0x3b9d3cba	0.004798499
7	0x3ab70c7e	0.0013965515
8	0x3bfa4a7c	0.0076382738
9	0xbcdaa99c	-0.026692204
10	0xb9f67fa4	-0.00047015876
11	0xbaae0b02	-0.0013278427
12	0x3b5b5e9d	0.0033473142
13	0x39e65f28	0.00043939915
14	0xbb459ace	-0.0030152085
15	0x3b86d59a	0.0041148188
16	0xbc8ffc7a	-0.017576445
17	0xbc0280b2	-0.007965254
18	0xbc2fbcdf	-0.010726183
19	0xbbf2dafc	-0.007411359
20	0xbc1d914b	-0.00961716
21	0x3ad8ddba	0.0016545572
22	0x3c2a4a65	0.010393714
23	0xbc0bc284	-0.008530263
24	0xbc16e19f	-0.009209066
25	0xbc0c9b98	-0.008582018
26	0xbae8118e	-0.0017705427
27	0x3b1e156c	0.0024121655
28	0x3c6700f2	0.0140993465
29	0xbb39d8bc	-0.0028357944
30	0xbbb43869	-0.0054998887
31	0x399b68e0	0.00029642042
